crawler.pth (torch_old, 107442 bytes, 11 tensors)

actor_body.layers.0.weight f4 [64, 129]
00000000: 3776 663d 5895 c7bc e44a 45bd 881a 3a3d
00000010: 5aa4 81bd 83ad e03d 50db bbbd 4260 2abc
00000020: 49a5 123d 6d95 973d 040d c83c 2d73 cb3c
00000030: 8f16 913d 8237 9abd 87a4 d33c 6f3d 8d3d
00000040: 0107 0b3c 0068 b8b9 4225 9a3d 90d2 903c
00000050: a569 5fbd 72d4 81bd b69b fd3b 657e feba
00000060: 926b 8ebb 6f7e 50bd ddfb 3e3d 5aec b83d
00000070: 7909 1bbe 4890 5f3d cf56 9a3b 8ef2 c23d
00000080: d9d1 523d f377 90bd bacd 04bd 3b12 75bd
00000090: 7120 df3d 6922 49bb 42cc 393d dd38 f9bd
000000a0: 2f2e c13d ccf1 063c 4439 873d c0a7 883a
000000b0: 7383 86bc dc5e 393d aa18 aa3b 73c5 7d3d
000000c0: 1e55 d7bd d682 cbbb e700 02be dbf4 a4bd
000000d0: 627f 0a3d da95 d33c 32e2 af3d f829 4a3d
000000e0: 6855 3dba 5ab7 70bd d9cb ba3c 0fe5 b03d
000000f0: 56ac 5fbd c096 dc3d e0c3 603d a7de d43d
00000100: 8af0 05bc 4be2 65bd 7164 40bb ab13 a23c
00000110: 4753 6ebd be3b 5bbc 942f 443d 8421 a9bc
00000120: f028 01bd 207a a43b 691a 033d f9bf c73c
00000130: 9da3 3ebb 574b bd3d e30b b0bd 1674 783d
00000140: 3357 91bd d229 f5bc e2c9 393c 2b18 31bd
00000150: 2bbe 343d f2da 50bd 0c1d 43bd 8490 173e
00000160: fcf3 ad3b 6d59 093e ede7 e53c a288 08be
00000170: 84a5 e03c 32a9 913d e4f3 92bd 37ee 57bc
00000180: 09ee 0d3d 012c dcbb 3c67 19bd a856 dabc
00000190: f99f 083e 1073 85bc 9fdb 893d 21a9 c93d
000001a0: 5c3d 37bd 9470 f739 9b1e 333d cf51 2e3b
000001b0: 7f43 953d a96b 3cbd bbbf 313d 30b5 093d
000001c0: f8a6 193d 1b4f 6fbd 2035 5fbc 7465 0a3e
000001d0: 1b67 a93d 2174 d23d f246 40bd 0fdd 95bc
000001e0: 4875 a1bd 4f42 22bd e733 aa3d c47f aabd
000001f0: 1b9b 653d 4ec9 67bd 4889 a9bd 284c 99bc
00000200: 5d24 cf3d 19f0 f83d 06fc 13bd c213 c63c
00000210: a874 ca3d ad5c c93d 01e7 c63d fa81 ed3d
00000220: 88c7 a63d 9227 973d 3f67 07be 146c 97bd
00000230: fb04 94bd 520d 62bd 9960 eebd dea5 d33d
00000240: 5996 62bc 4d5d 07bb 189b 0a3d 976d 2ebc
00000250: b8b8 333d 0cea 2fbc f10b cabc 49e7 073e
00000260: 94a8 2cbd 8179 103d 5eba ccbd eb91 cbbd
00000270: 7c61 1abd 3196 933b 0e33 803d 16d7 a4bc
00000280: 5c99 a73c 6130 6c3d bc0b 913d a2b5 4b3b
00000290: add2 87bc a9c7 8d3d 087c 24bd 6eb6 ed3c
000002a0: 0bf7 a4bd 2981 a4bd caec ffbc 2438 1a3d
000002b0: 80c4 833c 7e8b 973c 84f9 b33d cdad d63d
000002c0: b436 2b3d b90c 8bbd d9a5 aabd 0436 713d
000002d0: f6b7 9fbd 2ed8 3abd 0112 47bc 6252 47bd
000002e0: c16b a2bd 0d51 503d 24e3 9bbd 7a5d b03c
000002f0: 7d37 d6bd b173 52bd b996 8a3d ef69 03bd
00000300: cf5b 98bd 32ae debb f277 a03c ed35 dfbd
00000310: 721c d83d 504e 0f3c 7bff 943d 006b 7cbd
00000320: e4ae ae3c 0f3b 14bd f4f1 993d 075f ccbd
00000330: c73d 643a 6c24 0ebd a354 87bb a7fc d4bc
00000340: 045a 103c 1e5a 493c fddc ac3d f6a9 893d
00000350: b073 58bd 3b76 563d 1a36 9d3d 8589 fb3d
00000360: 3165 c33d 4c1a afbd 2146 cbbd 256e 8b3d
00000370: 0c92 36bd db9f 2c3c 95fd cbbd 3a10 a6bd
00000380: 7e98 b1bb d377 09bd a379 5a3d be2d 833d
00000390: 9ad3 8e3d dd36 c83d 7c5b 92bc 43c4 02be
000003a0: f662 a83d ca2d 5bbd c6f4 c33b 59bc a63c
000003b0: f610 d6bc 228c bb3d 392a 353e fa85 40bd
000003c0: 7a6e bfbd 8288 393d 9479 173d 0526 b73c
000003d0: e040 d8bd f6fe 6a3c 627f 65bd 486b aebd
000003e0: 7a2a aebc ff6d f73c 2bef e33d 588d 643c
000003f0: 3f7d 3f3d b2aa 9f3d 90e0 603d 7796 34bd
0.056265082 -0.024363205 -0.048167124 0.04543546 -0.06330176 0.10970595 -0.0917269 -0.010398926
0.03580216 0.074015476 0.024420269 0.024835194 0.07084381 -0.075301185 0.025835289 0.06896483
0.008485557 -0.000351727 0.075266376 0.017678529 -0.05454411 -0.06339349 0.0077395095 -0.0019416331
-0.0043463195 -0.050901826 0.046626914 0.090294555 -0.15140332 0.054580957 0.0047100554 0.0951892
0.051469658 -0.070541285 -0.03242276 -0.05983184 0.108948596 -0.0030690676 0.04536081 -0.12169049
0.09432637 0.00823636 0.066027194 0.001042597 -0.016420102 0.04525648 0.0051909285 0.06195588
-0.10514282 -0.006210665 -0.12695657 -0.08054515 0.033812888 0.02582829 0.08588065 0.04935643
-0.00072225044 -0.058768608 0.02280228 0.086374395 -0.05460771 0.10770941 0.0548743 0.1039403
-0.008175025 -0.056124013 -0.0029356743 0.019784769 -0.05818489 -0.013380943 0.047896937 -0.020645864
-0.03153318 0.0050194412 0.03200761 0.024383532 -0.002908922 0.092428856 -0.08596017 0.060657583
-0.0709671 -0.029927168 0.0113396365 -0.04323594 0.04412667 -0.050990053 -0.047635123 0.14801222
0.005308626 0.1341302 0.028064692 -0.13333371 0.027422674 0.071123496 -0.07175425 -0.013179353
0.034650836 -0.006719113 -0.037451968 -0.026652649 0.13342275 -0.016290218 0.067313425 0.09846712
-0.04473625 0.00047195388 0.04373036 0.0026599055 0.072882645 -0.04600111 0.04339574 0.03362006
0.03751275 -0.05842505 -0.013623506 0.13515264 0.08271619 0.10276056 -0.04694266 -0.018293886
-0.07883698 -0.039614018 0.08310681 -0.083251506 0.056056123 -0.056588463 -0.082781374 -0.018713072
0.101143576 0.1215517 -0.03612902 0.024179343 0.09885532 0.098321296 0.09712029 0.11597057
0.08143526 0.07380594 -0.13222979 -0.07393661 -0.072275124 -0.055188484 -0.11639518 0.10334371
-0.013829791 -0.0020654977 0.033839315 -0.010646245 0.043877333 -0.0107369535 -0.024663897 0.13271822
-0.042152956 0.035272125 -0.09996484 -0.09939941 -0.037690625 0.004503988 0.06259738 -0.020122092
0.02045887 0.057663325 0.07082316 0.0031083603 -0.01657995 0.06922848 -0.040157348 0.029017653
-0.08054932 -0.08032448 -0.03124084 0.037651196 0.01608491 0.018499132 0.08787826 0.104823686
0.041800216 -0.06789536 -0.08332414 0.058889404 -0.0779876 -0.04561632 -0.012150289 -0.04866255
-0.07930709 0.050858546 -0.07611683 0.021528948 -0.10459802 -0.051379863 0.06767029 -0.032083448
-0.07439386 -0.006795668 0.019588444 -0.108989574 0.105523005 0.0087466985 0.072752915 -0.06162548
0.021323629 -0.036189135 0.07516852 -0.099790625 0.00087067153 -0.034702703 -0.0041299625 -0.02599938
0.008810524 0.012289552 0.08440588 0.067218706 -0.052844703 0.052358847 0.07676335 0.12282089
0.09540785 -0.085499376 -0.099254854 0.06808118 -0.044572875 0.010536159 -0.09960476 -0.08108564
-0.00541979 -0.03356154 0.053338658 0.06405209 0.069739535 0.09776089 -0.017865889 -0.1277018
0.08222 -0.053510465 0.005980107 0.020353483 -0.026131134 0.091575876 0.17691888 -0.04700277
-0.093472436 0.0452962 0.03698118 0.022356996 -0.10559249 0.014343014 -0.056029685 -0.08516556
-0.021260489 0.030203817 0.11129602 0.013949715 0.046750303 0.077962294 0.05490166 -0.044088807

actor_body.layers.0.bias f4 [64]
00000000: f1e9 363a 20b0 b33d 379a 333d 6c82 3d3d
00000010: 286f 163d bd35 c73d 5758 043d 1d18 533d
00000020: bad6 dbbc 6ab8 043d 74cf 283d 0a3f 69bd
00000030: 8f4f 79bd 78e9 b3bc 9fb7 22bd 1c17 cf3d
00000040: ab1b cfbb 552c 593d 0dfb 11bd 550e 93bd
00000050: 614f 52bb 99b7 8dbc 1600 8cbd ca6f 1ebb
00000060: ce1e 313d 3ed2 e3bd ee6f 5bbd 514b 84bb
00000070: 036b 09bc fe3b 27bd c120 a73d 9cca 1cbd
00000080: f27d 233d fac0 bdbd 0f5d 5ebd ab61 5abd
00000090: fa83 973b 2ee1 c23c 6623 4c3c 19af ecbd
000000a0: a22b c03a ccc4 9abd 7e08 91bc 5967 853d
000000b0: e18b 853d ab16 c73c 41f7 f13b b41f 803c
000000c0: 3f54 c7bc 80d8 04bd f39c bebc 264b b0bd
000000d0: 729c cd3d 5457 b43d 727a efbb 08fe ef39
000000e0: 5192 983d 483b debc 17ba 593d 4afe acbd
000000f0: 2b71 3c3d bd4c 5f3d d029 423d 61c0 b33d
0.0006977609 0.087738276 0.043848243 0.046266958 0.0367271 0.09727047 0.03231081 0.051536668
-0.026835788 0.032402433 0.041213468 -0.056944884 -0.06086689 -0.021961913 -0.039725896 0.1011183
-0.006320437 0.053020794 -0.03563981 -0.07180468 -0.003209077 -0.01729946 -0.06835954 -0.0024175518
0.04324227 -0.11124085 -0.05357354 -0.0040372987 -0.00838733 -0.040828697 0.08160544 -0.03827916
0.039915033 -0.09265323 -0.054287966 -0.0533158 0.004623887 0.023789015 0.0124596115 -0.11556835
0.0014661441 -0.07557067 -0.017704245 0.065138526 0.065208204 0.024302801 0.0073842113 0.015640117
-0.024332164 -0.032433033 -0.023268199 -0.086080834 0.10039605 0.08805719 -0.007308298 0.000457749
0.07449783 -0.027127877 0.053155985 -0.08446939 0.046006363 0.054516543 0.047403157 0.08776928

actor_body.layers.1.weight f4 [64, 64]
00000000: e32e a83d fe12 233a 697c a63c 9c0f 5fbd
00000010: 17ea 723c 4a55 86bd 3f5f d9bc a3d1 4b3d
00000020: ae55 11be f016 b3bd 8ea2 433d fef1 be3d
00000030: 1249 1e3e 6338 0f3e b01f 513c 2872 2bbd
00000040: 6998 9ebd 2950 7cbc 0c0b f4bb 656d 923d
00000050: 6fcf e8bd dabc bcbd 2c88 22be ad71 063e
00000060: b5a8 dabd 3290 95bd 97f5 673d 65f7 aebd
00000070: e4f2 cdbd 18ed 82bd b90d f63b a553 3b3e
00000080: 5e6a 923d d9e7 08bc eb0c 32bc 6941 c53a
00000090: 1dd5 f8bd a5fc 8cbd 7009 d2bd c74a 863d
000000a0: b713 28bd b654 96bd 82bc ea3d 7c00 a43c
000000b0: 3414 c3bc 8412 ce3d 178f 9f3c 4f19 013d
000000c0: fd31 f73d 436a 073d 79c9 e93c 077d 233d
000000d0: 5375 93bc 5f4c fcbc 9588 653e b4ef 4d3d
000000e0: d88a a83d 4a18 043d 0a46 0d3d 14dc d13d
000000f0: b804 fe3c c02c 58b9 5816 16be a2f2 54bd
00000100: 466f 04be e888 613d fd1d ae3d 34a7 9ebd
00000110: 7b32 bfbb ee5d 8dbc 2f40 e13d 6b49 78bc
00000120: 167e 1a3d db20 d33d 0e85 01bd 4ae9 b13d
00000130: c8bf 38bd b52f 33bd 3139 51bd 579e 363c
00000140: 4526 d13d 4733 983d 1501 2dba 2edb f23d
00000150: da14 ef3a ed17 afb9 cb75 c4bc 89f9 7abd
00000160: f0e0 2fbd 350a f5b8 4e18 3bbe 158d 6c3d
00000170: dfa9 3abc 0d4e 663d 2603 b3bd 3989 2a3b
00000180: 38fd 7ebd 5e5d 7cbd 1f76 373d f7b0 f1bd
00000190: ab2f 26be c69a 01bd a65c 193e e0c5 19bd
000001a0: f841 3abd b054 8c3d 2d39 233e 31fe c03d
000001b0: 697c c6bd 2d86 33bb ff27 0dbe a879 2ebd
000001c0: 2e1d a63d f22b c7bd d064 13be 49ca d2bc
000001d0: 2531 b4bd 48b4 80bc 998a 05be 7bf2 cdbd
000001e0: b3ff ff3a b295 363d fcfb 76bd 6a22 85bc
000001f0: 25c9 12bd af8e 013c b55b 0b3e 7452 923d
00000200: 0a93 29bd 4e1f 81bd 5acf ff3d f90a 8abc
00000210: 7b7b 683c 847b 2e3e 1119 df3c 9b47 0f3d
00000220: 24ef 1fbe 8fc7 99bd ef82 13be ab9a 783d
00000230: ec58 333e 8674 d3bd a652 0d3e 5482 5a3e
00000240: 83e5 823d a675 39bc 8bfb 49bc 63f8 ad3c
00000250: a7c8 123e afac 043e 45a0 02be 7402 e53c
00000260: 1b54 bd3c d73d c63d 0e0e 5fbd 7d15 c6bd
00000270: 5aac b03d a61c 95bb 01f9 82bd 0c1c be3c
00000280: 1543 d9bc feac f1bd f9bb 153d 02ba 1bbe
00000290: 832c ef3d ccd7 ffba a521 0bbe 6b15 1abd
000002a0: 1015 f23a c1ff 7ebc bd8a cc3d 8803 a6bd
000002b0: cc38 3a3d 1c36 a2bd df9d 5dbc e7b7 d0bd
000002c0: c58e a83d 3b67 133e 0b1b ccbc c481 1e3e
000002d0: e0af 24bb ec59 813d de0e 353d 7f2a 79bd
000002e0: d224 6f3d 45a0 71bd 6dec 283d 064d 8dbd
000002f0: a53d 10be 5289 c73d b17b 3cbe fe2f 3c3b
00000300: 2048 2b3e 1338 64bd c87d 00be a9aa d23d
00000310: 7995 15bd fc33 a43d 4040 803d 1355 c83d
00000320: 54f3 c23d 4278 03be 77f2 5c3d 33b5 82bd
00000330: 6aa3 aebd e223 1bbc 3d10 853d 787b ec3d
00000340: 3c89 c9bd 9284 e9bd 9540 c53c 4af2 3a3c
00000350: 5d37 cfbd 066c e3bc f9e7 293d cd38 993d
00000360: dbbd 9bbd f7e1 9dbd 77b9 0ebd 3cd3 e4bd
00000370: ede0 8ebc af70 f93c a803 65bd e18d 13bd
00000380: 1f3f 8cbd 9542 33bb c9c1 a43c 0146 b4bd
00000390: 1168 1c3e 34a8 8bbc 70ee fa3c 1a8d 033e
000003a0: b7b2 2c3c 2626 3cbd cf4d 10be c58b 9bbd
000003b0: 7cfb b2bd 8d4d ff3b 5f23 143d b78f 9bbd
000003c0: 0084 903d 458f d33d 6b80 593d 9c81 c0bc
000003d0: 8217 c23d 6df9 edba 5844 34bc b109 693d
000003e0: e92f 7d3d 4973 49bd e7f1 873c 0fee 11be
000003f0: 7285 c43d 3040 02be 037b 203d 636d 553d
0.08212068 0.00062207866 0.020322995 -0.054458246 0.014826319 -0.06559236 -0.026534675 0.049760472
-0.1419284 -0.08744609 0.047762446 0.093235 0.15457562 0.13986354 0.012763903 -0.041856915
-0.07743914 -0.015399971 -0.007447606 0.071497716 -0.1136769 -0.09215708 -0.15872258 0.13129301
-0.106767096 -0.07302894 0.056630697 -0.085432805 -0.10056093 -0.06392878 0.00750896 0.18293627
0.07149194 -0.008356058 -0.010867338 0.0015049401 -0.12150023 -0.068841256 -0.10255706 0.065572314
-0.041034427 -0.07340376 0.11461736 0.020019762 -0.023813345 0.10062125 0.01947741 0.031518277
0.120700814 0.033060323 0.028538452 0.039914157 -0.01800028 -0.030798135 0.22415383 0.050277427
0.08229607 0.032249726 0.034490623 0.10247055 0.03100811 -0.00020616036 -0.14656961 -0.051989205
-0.12933072 0.055062205 0.085018136 -0.07746735 -0.005834875 -0.017256703 0.1099857 -0.015154223
0.0377179 0.10309001 -0.03162103 0.086870745 -0.04510477 -0.04374667 -0.051079933 0.01114615
0.102123775 0.074316554 -0.00065995875 0.118582115 0.0018240467 -0.00033396427 -0.02398195 -0.06127313
-0.042939126 -0.000116844116 -0.1827099 0.057751734 -0.0113930395 0.05622678 -0.08740835 0.0026021732
-0.062253207 -0.06161248 0.044790383 -0.118013315 -0.16229121 -0.031641744 0.14976749 -0.037542224
-0.04547307 0.0685209 0.1593978 0.09423483 -0.09691698 -0.0027393207 -0.13784789 -0.04259649
0.08111034 -0.09725179 -0.14393926 -0.025731223 -0.08798436 -0.015710965 -0.13041152 -0.10056015
0.001953116 0.044576354 -0.060298905 -0.016251761 -0.035836358 0.007907554 0.13609202 0.07144633
-0.041399993 -0.06304799 0.12490721 -0.016850935 0.014189596 0.17039305 0.027233632 0.034980398
-0.15618569 -0.07508766 -0.14405416 0.060694378 0.1751439 -0.103249595 0.13801059 0.21338779
0.06391432 -0.0113195535 -0.012328039 0.021236604 0.14334355 0.12956499 -0.1275645 0.027955271
0.023111394 0.09679764 -0.054456763 -0.09672067 0.086266235 -0.0045505343 -0.0639515 0.023206733
-0.026521245 -0.11800574 0.036556218 -0.15207675 0.11678412 -0.0019519269 -0.13587053 -0.037618082
0.0018469412 -0.015563906 0.099874 -0.08106142 0.045464322 -0.07920477 -0.013526409 -0.101913266
0.08230356 0.14394848 -0.024915239 0.15479189 -0.0025129244 0.06315979 0.04420363 -0.060831543
0.058384724 -0.058990736 0.0412411 -0.06899457 -0.14086016 0.09742989 -0.1840656 0.002871513
0.16726732 -0.05571754 -0.12547982 0.10286457 -0.0365195 0.08017728 0.06262255 0.097818516
0.095190674 -0.12838843 0.05394217 -0.06382217 -0.085272625 -0.009469004 0.06497238 0.11546987
-0.098406285 -0.11402239 0.024078647 0.011410305 -0.101179816 -0.02776147 0.041480992 0.07481537
-0.076045714 -0.07709115 -0.03484484 -0.11173102 -0.017441237 0.03044924 -0.05591169 -0.03602398
-0.06847977 -0.0027352918 0.020111935 -0.08802415 0.15274073 -0.017047979 0.030631274 0.12846795
0.010540656 -0.04593482 -0.14092182 -0.07595018 -0.08739373 0.007791227 0.036166545 -0.07595771
0.07056427 0.10330061 0.053100985 -0.023499303 0.0947714 -0.0018156 -0.011002623 0.056894008
0.06181327 -0.04918221 0.01659484 -0.14250968 0.09595765 -0.12719798 0.039179813 0.052106272

actor_body.layers.1.bias f4 [64]
00000000: c080 57bd e44e 2dbd 3d69 0a3c d4dd 043e
00000010: fa6a 73bd 6521 423d ca58 dbbd 0a39 cb3d
00000020: cb66 63bd 872f 77bb b570 3d3d b8c8 b23d
00000030: 2e54 b3bb 7711 cdbd 4330 80bd f242 cab8
00000040: 4ff9 883d 21f1 b6bd 1ecb d73c 0666 b63d
00000050: c7dd 6dbc 754b 00be 18dc febd 8608 adbd
00000060: b4db 133e 2826 0b3e b549 cdbc 2c40 48bd
00000070: e076 00be a121 c43d fc18 a1bd 126c 3e3c
00000080: dc93 1f3e 61da 023e 5ee6 e5bc 121a 71bc
00000090: 0c25 07bd 6b7b f23d c25a fe3d 734f 6abd
000000a0: dafe 0c3e 0abd 963d 02f8 003e c61f 1e3d
000000b0: 6746 d33d 832b 3ebd 42b5 b1bd 581b e0bd
000000c0: 0d89 c7bd dd90 d93d c78f e73d b627 eabd
000000d0: 0a7e c33d 1700 49bd ece7 663d 7d0a c93d
000000e0: bbaa 9a3d afdf 5c3d d4e7 d43d 4abe 743d
000000f0: c65f a7bb 1651 a03d bea3 ea3d eea5 b2bd
-0.05261302 -0.042311564 0.008447942 0.12975246 -0.059428193 0.04739513 -0.107102945 0.09922989
-0.055517953 -0.0037717537 0.046250064 0.0872969 -0.0054726815 -0.10013097 -0.06259205 -9.64458e-05
0.06688177 -0.089327104 0.026341971 0.08906178 -0.014518208 -0.12528785 -0.12444323 -0.08448891
0.14439279 0.13588774 -0.02505956 -0.048889324 -0.12545347 0.09576727 -0.078660935 0.011622446
0.15583748 0.12778617 -0.02806395 -0.014715688 -0.032994315 0.11839946 0.124196544 -0.057204675
0.13769093 0.07360275 0.12594607 0.03860452 0.103161626 -0.046428215 -0.0867715 -0.109427154
-0.09742937 0.106233336 0.1130672 -0.114333555 0.095455244 -0.04907235 0.05637352 0.098164536
0.075520955 0.05392426 0.1039578 0.059751786 -0.0051078526 0.07827966 0.114570126 -0.08723055

actor_head.weight f4 [20, 64]
00000000: a86b 003c 43b9 db3c 018b bbbd b4ae c3bd
00000010: 4b9c 3c3d 9dd4 20be 27d3 273c e185 363c
00000020: 2e57 b7bd 8ed4 153e 1872 cdbd f449 373e
00000030: 3648 3bbd 759c 1e3e 831c 763c f70e 7cbd
00000040: 3cb8 8e3d 08ee 0a3e 6537 34be c5c8 f0bc
00000050: 42aa 883d 9c1d 73bd 7019 d13d 8f4f bd3d
00000060: b169 3a3d 798d 493d f429 ddbc 7ddc 38be
00000070: 2b1a bc3d 5879 293e 7a2d 603d bcd7 1d3e
00000080: 0623 dabd dfeb 8b3d ec22 c43c 52eb d2bd
00000090: ed84 c13d 9183 c1bd c281 a13d cf68 cb3d
000000a0: 0d64 d93d 1b20 103e 55ce df3c 0cb6 ad3d
000000b0: 019a a63d 95da 2cbd ef65 c33d ab41 e8bd
000000c0: 6e0e 203e c87d 933c 657d 72bc 2d43 24bb
000000d0: c52d 0b3e 0240 b43d 1fe5 6f3d bcea 6ebc
000000e0: 93fe bf3c fdf0 1cbd 467f e73d 73d0 12bd
000000f0: eb91 bebd 8d71 053e 018f cbbd 7d23 fdbd
00000100: f4b2 94bd a818 9bbc 1361 243e 1b44 033e
00000110: 3144 1a3e ebc8 3d3c dd9b c8bd 9c45 27be
00000120: 72a0 6cbd 664f 64be bfae de3d 1649 0ebe
00000130: 84dd 563d 97d5 7f3d 3160 8ebd 48e2 b03c
00000140: 6755 89bd 2e82 883d 2dda 8b3d 14c0 c2bc
00000150: 2c47 87bc 9ce4 763c f028 d6bd a3d3 91bd
00000160: 6a15 26be aa3f 14ba cd2b 243e c686 dd3c
00000170: 876a 3ebd 19d7 7d3c 3bc5 533e 2eda 1e3a
00000180: 32a3 973d 59bb 823d fcfc efbd 5672 073c
00000190: c9af 6c3d fb16 803c d930 1bbe cdb5 e7bd
000001a0: 109b 0a3d e3b3 e43c e4c9 4fbd 4631 9abc
000001b0: b5f0 f83d 5088 683d 564f f53d 0894 843d
000001c0: 1b28 aabd 4c9a c7bc 688e 133d 1ecf 243e
000001d0: 62b9 2dbd 824f a73d 2ae4 e23b 8d2d b53c
000001e0: 0ddf c93d fbaa 99bd 6ade aabd bc38 85bd
000001f0: 6dc0 ec3d 25cc f43d d8a8 0d3e 14f8 be3d
00000200: 6dad f03c 4eaf 1a3d 5cbc 43bd 7e5d da3d
00000210: 260f 35b9 2a72 9bbc f877 88bd 6ce8 07bd
00000220: 2474 a73d 44bd 8b3b 6d66 a53d ebd6 273d
00000230: 45b8 1c3d 4a88 05be e575 32be 630d a33d
00000240: d294 4fbd a760 0b3e 3b58 963d 1096 cfbc
00000250: ca5d b9bd 16b8 f8bd b7ac 763d af56 08bd
00000260: 2588 a03d 9b96 2e3e 6e2c 04be d748 11bb
00000270: 1467 d0bc fed4 483d 3ba2 aabd 43a2 8e3d
00000280: b03b 85bd e1dc 63bc de31 71bc ecb0 423d
00000290: 196c 8c3c 10e4 6a3d 4744 803c 21a6 cd3d
000002a0: 0fd2 003e 7eba f5bc 900f d13d 5026 7e3d
000002b0: da38 c63d 22bf df3d 85e7 e5bd 36e0 c9bd
000002c0: bf95 9a3d e6ed bd3d 8e14 2fbc 8349 913d
000002d0: 2ab7 6abd efc4 1d3d 553b dabb c663 acbd
000002e0: b658 5d3d bf1b 083e 4a2b 90bd 30de dabd
000002f0: 6a7e 9d3d 826d 24bd bd99 0fbd f73b a1bc
00000300: acb2 993d 205f 043e 8648 403d 67db 39bc
00000310: 0a6d 2abd b1f9 9bbd 8ccf 2a3c 0369 a43c
00000320: 60d8 1cbd cd60 783d af0a 033e 2d89 6bbd
00000330: 57f9 5e3c bcc2 f93d 3ee0 d13d 29e8 ba38
00000340: cedc d63d aa5a 13be 79a7 063e cd40 eb3c
00000350: e23a 02be 93bb d73c eecd debd 90c2 f23b
00000360: 206a 29bd a79d 813d 4562 cabd 83f4 33bd
00000370: 5466 dc3d b4cb 5c3d f5ec eeba 9d98 653d
00000380: 60aa 09bd 51c3 a73d 708d a93d df6c 143d
00000390: 1a46 39bc 7bae 553d 76de 913d 3dd6 65bd
000003a0: a4fe edbd a3c0 d23d 140e b0bd a552 a4bd
000003b0: 0f9c c43d 3223 3dbd c330 103e 1398 01bd
000003c0: 7c1e bebd a6b8 dabd 2d23 7b3d a872 193e
000003d0: 97b5 e0bd 33aa 10bd 731e 8fbd 6f78 be3d
000003e0: 70c1 a9bd eb27 2f3e cb9c 073d 0c55 21bd
000003f0: 3926 0a3e 83cf 933c 7494 10bd f653 02bc
0.007838167 0.026821738 -0.09157372 -0.09554806 0.04604749 -0.15706106 0.010243214 0.011140318
-0.08952175 0.14631864 -0.10031527 0.17899305 -0.045723163 0.15489371 0.015021446 -0.06153771
0.06968734 0.13567364 -0.17599256 -0.02939261 0.06673099 -0.05935441 0.1020993 0.0924369
0.04551095 0.049207184 -0.026997544 -0.1805286 0.09184679 0.16550195 0.05473087 0.15414327
-0.106512114 0.06832098 0.023942433 -0.1029879 0.09449182 -0.094489224 0.078860775 0.099321
0.10614786 0.14074747 0.027320066 0.08481988 0.08134843 -0.042200644 0.09540927 -0.1134065
0.15630504 0.018004313 -0.014800404 -0.0025064454 0.13591678 0.08801271 0.058568116 -0.014582332
0.02343682 -0.03831576 0.11303572 -0.035843324 -0.093051754 0.13031597 -0.09939385 -0.123602845
-0.07260695 -0.018932655 0.16052656 0.12818949 0.15065075 0.011583547 -0.097953536 -0.16335148
-0.0577702 -0.22295913 0.10873174 -0.13895068 0.052457348 0.062459555 -0.06951941 0.021592274
-0.06705742 0.06665455 0.06828723 -0.02377323 -0.01651343 0.015069153 -0.10457027 -0.071204446
-0.16219106 -0.00056552386 0.16032334 0.027041804 -0.04648831 0.015493178 0.20680706 0.0006059733
0.07404174 0.0638339 -0.11718175 0.008267006 0.05778483 0.015635958 -0.15155353 -0.113139726
0.033839285 0.027917808 -0.050729647 -0.018822324 0.12155286 0.056770623 0.11978023 0.06473547
-0.08308431 -0.024365567 0.03602448 0.16094634 -0.042413123 0.08169462 0.006924172 0.022116447
0.09856997 -0.07503315 -0.08343203 -0.06504962 0.1156014 0.11953 0.1383394 0.09324661
0.02937957 0.03776484 -0.047787055 0.106623635 -0.00017267148 -0.018975336 -0.06663507 -0.03318064
0.08176449 0.0042645056 0.08076177 0.040976446 0.03826167 -0.13040271 -0.17427786 0.07961538
-0.050679035 0.13611089 0.073410474 -0.02534011 -0.09051092 -0.121444866 0.060223307 -0.033285793
0.078384675 0.17049639 -0.12907574 -0.002216866 -0.025439776 0.04903125 -0.08331724 0.06964543
-0.06505525 -0.013907642 -0.014721362 0.047532007 0.017141389 0.057346404 0.015657557 0.10041452
0.12580131 -0.029996153 0.102080464 0.062048256 0.09678812 0.109251276 -0.112257995 -0.09857218
0.07548093 0.09273891 -0.010686053 0.070940994 -0.057303585 0.03851789 -0.006659905 -0.08417468
0.05403968 0.13291834 -0.07039507 -0.1068691 0.07690127 -0.040143497 -0.035058726 -0.019681914
0.07504782 0.12926912 0.046944164 -0.0113438135 -0.041607894 -0.07615984 0.01042546 0.020069605
-0.03829229 0.06063919 0.12797044 -0.057503868 0.013609252 0.12195346 0.10247849 8.912414e-05
0.10491334 -0.14390054 0.13149823 0.028717423 -0.12717775 0.02633456 -0.10879122 0.0074084476
-0.041360974 0.06328898 -0.09882025 -0.043934356 0.10761705 0.053905204 -0.0018228578 0.056053746
-0.033609748 0.081915505 0.0827893 0.03623664 -0.011308217 0.05216835 0.07122509 -0.056112517
-0.116208345 0.10290649 -0.08596435 -0.08023576 0.09600078 -0.046176143 0.14081101 -0.03163917
-0.09283158 -0.1067975 0.061312843 0.14985144 -0.109721355 -0.035318565 -0.069882296 0.09300315
-0.082888484 0.17105071 0.033108514 -0.039387748 0.13491143 0.018043285 -0.035297826 -0.007954588

actor_head.bias f4 [20]
00000000: d433 023e ed00 c53c 2ede 793d 1cd1 273d
00000010: 9c07 0c3c bd33 7a3d 0d26 c43c 4675 003e
00000020: 596b a23d 0a11 8e3d bcdc f03c 7c21 66bb
00000030: 4518 e3bd ee48 04be 93c2 c9bc 32fa 97bd
00000040: b520 313d c85c b43d 56b7 33bd a755 16bc
0.12715083 0.024048293 0.061002903 0.040970907 0.008546736 0.061084498 0.023943925 0.12544736
0.07930631 0.06936844 0.02940213 -0.0035115173 -0.110886134 -0.12918445 -0.024628913 -0.07420768
0.043244082 0.08806759 -0.043876015 -0.009175695

critic_body.layers.0.weight f4 [64, 129]
00000000: b960 02bd 3113 cb3c bc7c bfbd 1e81 5e3d
00000010: 6b57 05bd 2782 0bbe 71b8 3d3c d1b8 c33d
00000020: 3149 0b3d 36ac 95bc 1e63 a23d c96b d23d
00000030: 2e59 633d 03d1 473c 6e5f 0fbd 4198 b2bd
00000040: 7a5f 253b 8808 aa3c 6361 3f3c 0b9b 023c
00000050: e5fd 0b3e efcb 983d b99f 95bd 3fbb 11bd
00000060: 635a 8e3d 7b18 e63c dc85 493d 0490 6c3d
00000070: e600 48bd 2a92 a1bd 2c14 a53d 78c1 903d
00000080: e153 693d 20e2 5fbd 18fe 603d fd35 843b
00000090: 6c14 5d3d 4b00 adbc 508a 64bd 5c2e b0bd
000000a0: 37bd c1bb 6619 983d 807e f5bb 3027 6ebc
000000b0: 067e 86bd 0099 dfb9 f3b2 903d 1654 44bc
000000c0: d36b be3d 1ac6 1bbc 2c57 8f3c 4d23 52bd
000000d0: 0c3c dabb 75c9 14bd d892 65bc 4bf1 c53b
000000e0: b57a 58bb a87e a7bd 5193 b93d dd4b 123e
000000f0: e4e2 233d a75d db3a 990d e83d 142f a13c
00000100: 2c4e 91bd 1e3b 763c 21e4 9cbd 111f febd
00000110: a862 ad3d 0b09 5f3d 7ceb 403d 1b80 9fbd
00000120: 55ae 393c 9125 85bd 4332 e53d 2bcb a0bd
00000130: 2f16 4c3d b724 7fbc 5665 f8bc e147 003c
00000140: 55ff 533d e14e 9e3d ae5f 0fbb 97f7 c33c
00000150: 0e47 83bb 65f2 69bd 5fc2 603d fa8e 303d
00000160: 974a 863c 57a9 1f3d 1294 ba3d f3ba 023d
00000170: 406b 9fbd fc06 ca3b 4516 bdbd d22b 8cbd
00000180: 3a80 933d fab5 813d 10fb c23b 64a2 173d
00000190: 3093 e03d cb06 a0bd 4c26 cd3d ff7e c13c
000001a0: de57 363d 83eb b2bd bffb dfbd ed78 9b3c
000001b0: 419c 6f3c aa60 95bc 788a 1c3d 194a f53b
000001c0: 61aa d63c a4ab 84bd 2b82 f6bc b3d5 4e3c
000001d0: 767e 513d fcd1 98bd 0a27 9d3c bbf0 19bc
000001e0: 193a 19be 2eaf 94bc 7d17 893d babb b6bb
000001f0: 8044 be3d e025 ad3d 802d 8abd 9824 463c
00000200: bc0d 0f3d a048 22bd 3a78 06bd e5f7 34bd
00000210: 90dd 803d 9f7c aabc ec03 bd3d c543 ec3c
00000220: d3fb 86bd df22 9d3d 5264 333d 888a a13d
00000230: fbeb f5bc ba8b 5abd b084 99bd 7ffd 1f3c
00000240: acc3 25bd 65d7 bd3c 2091 f13c d16b 5d3c
00000250: 80d4 e23d a09b dbbd f28c 7abd 79e2 ce3c
00000260: e9ed aabd 5b3e 733d 8483 f4bb 0b54 8abd
00000270: f7db 8abd 386d fcbc 4fac 2fbd 3753 1f3d
00000280: cd20 a03c 24d2 34bd 9d99 56bd c05a 5ebd
00000290: ecc7 c9bd c083 9a3d e12d 10bd ec50 b9bb
000002a0: 3e2e f43d f720 a33d 73e0 103d fcf3 da3c
000002b0: 00fc 29b9 a69a 8abd 6bf5 97bd 3f99 a03d
000002c0: c5ff 97ba e59e aabc bc54 40bc d954 9d3d
000002d0: 610e 7abd c8c9 f03c 87b0 0f3d e3a0 c5bb
000002e0: de9e 9cbd 02fd 05bb b08b 9f3b 64d8 a2bd
000002f0: 3415 2b3c 6f21 853d cb5d 2fbc 91e9 3c3d
00000300: 5c88 853d a80f 16bc 2c48 073d 06a2 873d
00000310: df4f 09bd 21f6 6fbc 56c9 243c 6010 a9bd
00000320: 0827 b23c a766 5e3d a66f 87bd b441 aabd
00000330: c54e b23c b95b f63b 2705 5439 c2bb 76bd
00000340: b919 c5bd 17d8 d23c ca18 fe3c e8c5 9f3c
00000350: 1bd2 a9bd 8ea1 733d 9c54 9abc 74f5 b8bc
00000360: 36dd ccbd 95e5 a8bd d49e abbd 6052 9dbd
00000370: 7893 71bb 83e9 f0bd 0a8e 24bc 87d6 bc3c
00000380: 0e97 393d 498c 78bd f2f1 913c 2079 5b3d
00000390: 3492 e63c 6f45 d6bb 94ea 173d 213b a7bd
000003a0: 9884 063d b25f cebb b00d 933d 6a9a 11bd
000003b0: a2d7 89bc f306 1fbd e241 3a3d f024 65bd
000003c0: 7816 463d 2b66 943d d098 243d b26d 833b
000003d0: de7f 443d ff55 d13c 7399 17be fb95 103d
000003e0: 768c 26bd 7f3c aabd af31 54bd 2727 edbc
000003f0: 9bf8 c63d 764c 993d f38d 67bc 50b5 39bd
-0.031830523 0.024789425 -0.09349963 0.054322354 -0.03255407 -0.13623868 0.011579619 0.09556735
0.034005348 -0.018270593 0.07929061 0.10274465 0.05550497 0.012195828 -0.03500312 -0.087204464
0.002523391 0.020756021 0.011680934 0.007971535 0.13671072 0.07460772 -0.07305855 -0.035578962
0.06950834 0.028087845 0.049199924 0.05775453 -0.04882898 -0.07889207 0.08060488 0.07068151
0.05696476 -0.05465901 0.054929823 0.004034756 0.053974554 -0.021118304 -0.055795968 -0.08602592
-0.0059124487 0.07426719 -0.0074918866 -0.01453571 -0.06567006 -0.00042647868 0.07065382 -0.011982938
0.092979096 -0.00950768 0.017497621 -0.051303197 -0.00665999 -0.036324937 -0.014012061 0.0060407273
-0.0033032123 -0.08178455 0.090613015 0.14286752 0.0400113 0.0016736285 0.113307185 0.019675769
-0.07094988 0.015028743 -0.076607 -0.12408269 0.08466083 0.054451983 0.047099575 -0.07788106
0.011333068 -0.06501306 0.11191227 -0.07851251 0.049825843 -0.015572718 -0.030321758 0.007829637
0.051757175 0.07729889 -0.0021877098 0.023921771 -0.004006273 -0.05711593 0.054872867 0.043105103
0.01639299 0.038979854 0.091102734 0.03191657 -0.07784128 0.0061653834 -0.09232763 -0.068442956
0.07202192 0.063335374 0.005950339 0.037020102 0.10965574 -0.07813796 0.1001707 0.023620127
0.04451739 -0.087363265 -0.10936689 0.01897856 0.014624656 -0.01823457 0.03821799 0.00748564
0.02620429 -0.0647805 -0.030091366 0.012624192 0.051145993 -0.07461926 0.019183654 -0.0093957735
-0.14963569 -0.018149938 0.06693933 -0.005576578 0.09290409 0.0845449 -0.0674696 0.012093686
0.034925207 -0.03962004 -0.0328295 -0.044181723 0.0629226 -0.020811377 0.09229264 0.028840909
-0.065910004 0.07672667 0.043796845 0.07887751 -0.03001975 -0.05335591 -0.07496011 0.009765028
-0.04046981 0.023173997 0.029488146 0.013514475 0.110756874 -0.107230425 -0.061169572 0.025254475
-0.08346159 0.05938564 -0.007461967 -0.06754311 -0.06780236 -0.030813798 -0.042888936 0.03889772
0.01954689 -0.04414572 -0.05239259 -0.054285765 -0.09852585 0.075446606 -0.035200004 -0.0056553986
0.119228825 0.07965272 0.0353703 0.026727669 -0.00016210973 -0.06767778 -0.07419857 0.078417294
-0.0011596611 -0.02082772 -0.011738952 0.07682199 -0.06104887 0.029393092 0.03508046 -0.006031142
-0.07647489 -0.0020444994 0.004868947 -0.079514295 0.010442067 0.065005176 -0.010703514 0.046121184
0.06520149 -0.009159006 0.033027813 0.066227004 -0.033523437 -0.014646084 0.010057768 -0.082550764
0.021747127 0.054297116 -0.06613092 -0.08313313 0.021766076 0.0075182584 0.00020219815 -0.060237654
-0.09624047 0.025737805 0.03101768 0.019503549 -0.082920276 0.059480242 -0.018839173 -0.022577979
-0.1000313 -0.08246914 -0.083799034 -0.076817274 -0.003686158 -0.11763289 -0.01004363 0.023051513
0.045310073 -0.06068066 0.017815564 0.05358231 0.028145887 -0.006539039 0.037088946 -0.08165575
0.032841295 -0.006298029 0.07180345 -0.03554765 -0.016826455 -0.038824987 0.045472987 -0.05594343
0.04836127 0.072460495 0.040184796 0.0040108794 0.047973506 0.025553701 -0.1480463 0.035299283
-0.040661298 -0.0831232 -0.051805194 -0.028949333 0.097153865 0.07485287 -0.014132964 -0.04533893

critic_body.layers.0.bias f4 [64]
00000000: 90fe ab3d c423 53bd c89d e4bc cb7a 58bd
00000010: 0b4b 853c 43fb 7b3d abb0 e13c adf2 583d
00000020: 02fa 2dbb 8b57 033d ec7e dcbd e09b 1fbd
00000030: 9145 a63d 0868 05be 1f4b c03d 6067 c0bc
00000040: 59fd d7bd 9bd6 cfbd ca02 d03d 2d5a cfbd
00000050: 07c2 aabd ccbb 0a3d 3d15 ccbc 2652 853d
00000060: 9b29 543d f57e a9bd b30d 8bbd 1e31 373d
00000070: 3e3c 513c 7e5e e63d b349 483d 95bb c1bd
00000080: 2658 86bd 111d ad3d 8b1c c53d e4dc babd
00000090: 3a2b 4cbd 9d62 c13b 4831 dabd 6ca7 33bb
000000a0: 679c e3bd 8286 7f3d d6c8 1a3d dc3b a6bd
000000b0: bcec 8a3d cdb9 bebd 9729 893c 46d8 843d
000000c0: fdc7 643d 08d7 52bd 3af7 dbbc 1aac d4bd
000000d0: f4ab 59bd 5e15 70bd 94f8 b43d 82ea fdbc
000000e0: 2934 d13d 4cbb 3b3d 0bb4 09bc 77e5 b23d
000000f0: 989b 86bd 58fd b1bd b423 25bd f947 7b3d
0.08398163 -0.05154778 -0.027907267 -0.05285148 0.016271135 0.06151892 0.027550062 0.05296581
-0.0026546721 0.03206591 -0.10766396 -0.038967013 0.081187375 -0.13027966 0.09389328 -0.023486793
-0.10546369 -0.101483546 0.10156782 -0.101246215 -0.08337789 0.033870503 -0.024912471 0.06509809
0.05179749 -0.08276168 -0.06789722 0.044724576 0.0127707105 0.11248492 0.04889841 -0.094596066
-0.06559782 0.084528096 0.09624585 -0.09124163 -0.04984591 0.005901648 -0.10653931 -0.0027413024
-0.11113816 0.062384136 0.03778919 -0.08116886 0.06783435 -0.093127824 0.016743464 0.064865634
0.055854786 -0.0514746 -0.026851285 -0.10384388 -0.053142503 -0.058614127 0.08836475 -0.030995611
0.10215027 0.045832917 -0.008404742 0.08735173 -0.06572646 -0.086908996 -0.040317252 0.061347935

critic_body.layers.1.weight f4 [64, 64]
00000000: c3da b6bc 8b64 1b3e 5769 163e 4ada d8bd
00000010: 53a0 67be 18b9 163c c9fa 56bd c847 b4bd
00000020: 9ee2 97bd d8b1 fb3c f81f 13bd 963e 463e
00000030: 3b8e 84bd 4a81 3bbd 22e8 983b e750 983d
00000040: 654b 36bd 33d3 76bd eaa6 a0bb b340 3e3d
00000050: 5af2 babc fc72 113e 7fd5 23bd e9e2 dfbd
00000060: 08ea 393a 2448 27bd b6b1 c1bd aac4 d2bc
00000070: 3c43 8e3c 4713 02be 8c83 08be 3358 a7bd
00000080: c967 b53d 320a 62bb eb70 f9bd 0fa6 863d
00000090: fabc 6dbd d8f0 9e3c 29c1 76bd e73a 95bd
000000a0: bb98 de3d 2b6f aebd 8705 ccbd 32da a7bd
000000b0: 7aa1 223e 493b d13d ffdc 6fba 6524 ec3c
000000c0: 1b82 8abd 6edf 163e d95f 94bd a920 90bd
000000d0: 1a52 ce3c 710e c0bc 0beb e83d 9dc7 a93d
000000e0: 057b 00be 3aea de3b 6593 95bb 512e e0bd
000000f0: ed01 e8bd 936d 03bd 44ba c2bc f37a 9d3d
00000100: 4549 663a a166 57bd ed81 c4bb 697b 743b
00000110: 27e6 a03d fa84 703d f53e c43d 4578 c83c
00000120: b071 21be e3f6 a03d 473f 9a3d f889 b9bc
00000130: 2434 0c3d 66fb cd3d 53cd d1bd ea40 40be
00000140: e79b 273e e8ea da3d 00b7 8abd dfdf 993d
00000150: d405 76bb fd35 633d 650f 223d 7fc3 c6bc
00000160: 04f2 bebc 44c4 153e 261e 393b 0880 d8bd
00000170: 50da 193e ca97 e1bd 3c8f d1bd 0a43 9cbc
00000180: d3e9 383e b308 cd3c 8df9 35bd 4e34 733d
00000190: 2472 72bd 84ff 67bd 765d 083c abbd e53d
000001a0: 13bc 52bc 0f3c ae3d a501 efbc 3d9e 143e
000001b0: 6d73 cebc 8160 303e c8a4 653d 7c4e ef3c
000001c0: 7484 a73d b74f a63d afc6 e9bc a9c6 0f3b
000001d0: c517 42bd c454 12bc e550 a6bd bbea c0bc
000001e0: caa9 18bd fde8 943d d841 27bd 128d 3a3c
000001f0: fbd1 4b3d 59ca 79bb 64fa 563d 5d44 4f3d
00000200: 1f27 653d 2504 57bd f3e7 e3bc b477 3e3e
00000210: b9d9 863c bf32 243e 2aa0 063e 88ad ec3c
00000220: 214e 28be e430 3e3d cca7 94bb 1b09 7ebc
00000230: b4e0 9ebd 5c61 3f3e 4405 4ebd 7fc3 3abe
00000240: 1ca5 123e c068 2e3e 7f9e f9bd f2c3 cbbd
00000250: 446b d63c ec6c b13d e40f 043c c7b9 b5bd
00000260: 70ef aa3c 1f49 c13d 9d94 a33d a8a1 bcbd
00000270: 4121 ba39 3667 05be c8d4 9cbd fade 0bbb
00000280: 01b2 293c 62ed 953d 6d00 49be 6cb5 9cba
00000290: 92e3 b8bb 1b9d 0cbe 6bf2 df3d eccf 233e
000002a0: 3a94 723c f326 d2bc 5057 b13d 9ff4 db3d
000002b0: c178 b5bc 6359 053e 4817 07bb f8ff 123d
000002c0: 365c b13d 3cba 93bd cc88 b03d b4ab a2bc
000002d0: 1e3a a0bd 6439 023e 4152 69bd 01ef 94bd
000002e0: e0f2 07be 3d46 7c3d a9cc 30be 737c c4bd
000002f0: 8347 d0bd 53ec b8bb 43f6 933d a4b7 433d
00000300: 9213 2b3d bd93 94bd d7f2 983d d9b9 dabd
00000310: 3f38 debb 1111 d8bc 804d 1ebe 6418 e9bd
00000320: 8f5e 943d 76ea 2d3c 9094 47bd d820 8b3c
00000330: 92d0 38bd cb04 95bd 0998 23bd d2e1 c83d
00000340: 2453 5ebb 5083 8fbd a689 c53d 77b5 233c
00000350: 49eb 5ebd f5ca 97bd a64e bd3c 4b1d 2ebd
00000360: 1fb5 3c3d 8138 2abe 446a e5bc 791f 92bc
00000370: e960 20bd c9ba 403d 7091 8d3c 6af2 b2bd
00000380: 7daa 26be 9870 3f3d d27a b23d 1d09 533d
00000390: a680 c3bc 30fa 61bd f702 5abb 8614 98bd
000003a0: 4a31 2abe cad3 84bc 8a2f 03bd abc2 90bd
000003b0: 7630 5fbc c440 98bd 4363 673d 410b a23d
000003c0: 8124 563c a7af 10be be3a b8bd 0e1e b8bd
000003d0: bf6f a53c 98f1 273d 373f ba3b 21cb 20bc
000003e0: 4192 12bd eb96 dcbd 823b e6bc b8e6 a83d
000003f0: 8929 573d 4638 9c3d abbe 9b3d 4090 323d
-0.02232111 0.15175073 0.14688621 -0.1058851 -0.22619753 0.009199403 -0.05248526 -0.08802754
-0.07416271 0.030724451 -0.03591916 0.19359812 -0.06472441 -0.045777597 0.0046663443 0.07437306
-0.044505496 -0.06026001 -0.00490271 0.04644842 -0.02282064 0.1420402 -0.039998528 -0.109319516
0.00070920633 -0.040840283 -0.09457724 -0.025728542 0.017366044 -0.12702666 -0.13331431 -0.081711195
0.08857686 -0.003449094 -0.121797405 0.06574642 -0.05804155 0.019401953 -0.060242806 -0.07286625
0.10868975 -0.08517297 -0.09961992 -0.08195914 0.15881911 0.10216386 -0.00091500574 0.028825948
-0.06763097 0.14733669 -0.07244844 -0.070374794 0.025185633 -0.023444386 0.11372956 0.08290026
-0.12546928 0.0068028243 -0.00456469 -0.10946334 -0.11328492 -0.03208692 -0.023770459 0.07689466
0.0008784722 -0.05258811 -0.0059969337 0.0037305003 0.07856398 0.058720566 0.095823206 0.024471411
-0.15766025 0.0785959 0.075316004 -0.022648796 0.034229413 0.10057716 -0.102442406 -0.18774763
0.16368066 0.10689336 -0.06773186 0.07513403 -0.0037540095 0.05547141 0.039565463 -0.024263142
-0.023308761 0.1462565 0.002824673 -0.10571295 0.15024686 -0.110152796 -0.10232398 -0.019074935
0.18057947 0.025028562 -0.044427443 0.059376054 -0.059190884 -0.056640163 0.008323064 0.11217817
-0.012862223 0.08507549 -0.029175589 0.14513488 -0.025201524 0.17224313 0.05606535 0.029212229
0.0817956 0.08120673 -0.028537123 0.002193848 -0.04738595 -0.0089313425 -0.08120898 -0.023549428
-0.0372713 0.072710015 -0.040834278 0.011386173 0.0497608 -0.0038114993 0.052484885 0.050602306
0.055945512 -0.052494187 -0.027820563 0.1860035 0.01646124 0.16034983 0.13147035 0.02889134
-0.16436054 0.046433344 -0.0045366045 -0.015505101 -0.077577025 0.18689483 -0.05029799 -0.18238638
0.14320797 0.17032146 -0.12188434 -0.09949483 0.026174195 0.08663353 0.008060429 -0.08873325
0.020866126 0.09437775 0.0798733 -0.09210521 0.0003550146 -0.13027653 -0.07657772 -0.0021342621
0.010357381 0.07320668 -0.19629069 -0.0011955923 -0.005642363 -0.13731806 0.109349094 0.15997285
0.014805848 -0.025653338 0.08659232 0.10740017 -0.022152307 0.1302238 -0.0020613242 0.035888642
0.08660166 -0.07213256 0.08619842 -0.019857265 -0.07823585 0.12717205 -0.05696321 -0.07272149
-0.13276243 0.061590422 -0.17265572 -0.09594049 -0.1016989 -0.0056434064 0.07224705 0.047782555
0.04176671 -0.07254741 0.07468193 -0.10679979 -0.0067816074 -0.026375325 -0.15459251 -0.11381605
0.07244598 0.010614982 -0.048725665 0.016983435 -0.045120783 -0.07276305 -0.039939914 0.09808697
-0.0033924067 -0.07007468 0.09645395 0.009991995 -0.054423604 -0.07411758 0.023108792 -0.042508405
0.046071168 -0.16623117 -0.028004773 -0.017837273 -0.03915492 0.047053132 0.017281264 -0.08737643
-0.16275974 0.046738237 0.08714832 0.051522363 -0.023865055 -0.055170238 -0.0033265927 -0.074257895
-0.16620365 -0.01621427 -0.03202776 -0.0706838 -0.013622394 -0.07434228 0.056491148 0.07912303
0.013070227 -0.14129506 -0.08995579 -0.089901075 0.020194886 0.041001886 0.0056838053 -0.009814055
-0.03578401 -0.10770973 -0.028104547 0.08247131 0.052529845 0.07627921 0.076047264 0.0435946

critic_body.layers.1.bias f4 [64]
00000000: fb46 9ebd 657a 34be e644 093d eba4 d23c
00000010: ea00 ee3d 5fc3 c83d dc0f 89bd a673 ae3d
00000020: 0852 8bba a348 693d 66fd 933c e3a3 5a3d
00000030: e5bd 1f3e 00f8 a4bd ca3b e5bc 3bde 86bd
00000040: 01f7 20be d7a9 43bd adc8 00be b45e 023d
00000050: b77a 903d 3367 adbd c2c7 5b3d 970e 193e
00000060: 1dbe 74bd 1bda d2bd 850f a33c ab25 8abb
00000070: cbcf dcbd a8e0 163d bbd2 84bc 75a9 843d
00000080: d4e5 11bd b8ad 173e 4aed 4c3c dc93 a83c
00000090: 19c5 8dbd 2da2 1c3e 4c7d b1bc 5806 d03d
000000a0: dc89 97bc a679 06bd 66c5 19bd f7c1 0e3e
000000b0: 1e98 353e 25ff 273d ff4b 89bd 57ac ae3d
000000c0: 4194 d23d 3b87 063e 77b2 0dbe baf4 c0bd
000000d0: b3cd 9c3d 1d32 1a3e c705 fbbd 92d9 003d
000000e0: 0319 a4bd d86d 60bd 39f1 26bd 1d3b 14be
000000f0: 4c18 07bd 664d 2cbd 1b69 673b 9682 debd
-0.07728382 -0.17624815 0.033512972 0.025713405 0.11621268 0.09802889 -0.06692478 0.08518152
-0.0010629306 0.056954037 0.018065166 0.05337895 0.15599783 -0.08055115 -0.027982611 -0.06585356
-0.15719225 -0.047769394 -0.12576552 0.031828597 0.07054656 -0.08466949 0.0536573 0.14946972
-0.05975162 -0.102955066 0.019904861 -0.004215916 -0.10781821 0.036835343 -0.016213765 0.06477634
-0.03561957 0.14812362 0.012507746 0.020578317 -0.06922359 0.1529624 -0.021666192 0.1015746
-0.018498354 -0.032830857 -0.03754177 0.13941179 0.1773381 0.04101481 -0.06703948 0.08528965
0.102821834 0.13137524 -0.1383761 -0.09421678 0.076564215 0.15058179 -0.12256961 0.03145749
-0.08012583 -0.054792255 -0.04075739 -0.14475675 -0.032982156 -0.042066 0.003531045 -0.10864751

critic_head.weight f4 [1, 64]
00000000: 2a7e aabc e651 eabd def0 37be f193 123e
00000010: ba68 323e 8816 313e 5741 923c 85d8 053e
00000020: 090b 2fbe 0990 cebd 61da 28be d91e aa3d
00000030: cd05 6c3d 473a b93d c9e7 1d3c 6987 60bc
00000040: c4bc 83bd acd9 c7bd 6638 643c 1268 013e
00000050: 1cbb f73d 7f87 eb3d 8037 d73d ad00 573d
00000060: 8d16 043e 7833 0b3e 964f cf3d 012e 273e
00000070: 7146 bb3b d8c0 7fbd 9fe8 063e f0d8 42bd
00000080: 8d66 053e 03ef 253e 2511 9e3d 2466 ed3d
00000090: 5d0f 18be 5d9f 283e 7204 edbd 386b 1a3e
000000a0: 4422 78bc 28bf cd3d 823c a33d b9b4 313e
000000b0: b2b8 af3d 0e50 d3bd ff80 063e c413 663d
000000c0: c46b 713d 4fb0 2f3e 7d09 81bd e6c4 1abe
000000d0: 2164 823c 6070 cd3d 10f9 24be 5d44 3fbe
000000e0: 148d b03c d374 203e 6a9d 31be 30c2 84bd
000000f0: d351 f13d 140c ecbd 33d7 05be 56f8 cbbd
-0.020812113 -0.11441402 -0.17962977 0.14314248 0.17422763 0.17293751 0.017853422 0.13070877
-0.17094053 -0.10086066 -0.16489555 0.08306665 0.05762272 0.09044319 0.009637781 -0.013704159
-0.064324886 -0.097583145 0.013929462 0.12637356 0.12096235 0.11500453 0.10508633 0.05249088
0.12899227 0.13593853 0.10122602 0.16326143 0.0057151844 -0.06243977 0.13174675 -0.04757017
0.13027401 0.16204457 0.07718114 0.115917474 -0.1484961 0.16467042 -0.115731135 0.15079963
-0.015144888 0.10046226 0.07970525 0.17354096 0.0858015 -0.103180036 0.13135146 0.056171194
0.058940664 0.171571 -0.06300638 -0.15114173 0.015916886 0.100311995 -0.16110635 -0.18678422
0.021551646 0.15669565 -0.17345205 -0.06482351 0.11783185 -0.11525741 -0.13070373 -0.09959476
