ppo_agent.pth (torch_old, 54130 bytes, 11 tensors)

actor_body.layers.0.weight f4 [64, 33]
000000 67 20 7d bd cd 10 05 be ee e8 99 bd 6d 6e 1f 3e
       -0.06179848 -0.1299469 -0.07515131 0.15569468
000010 e4 48 c3 be 6f 02 fb 3d 7a 95 64 bc 5b 88 81 3e
       -0.3814155 0.122563235 -0.013951654 0.25299343
000020 4d ff ac bd ca cf f5 bc 07 37 3d 3c 68 22 9d bc
       -0.08447132 -0.030006308 0.011548764 -0.019181445
000030 2d bf 9e 3d 66 32 44 3c 1d 89 b1 bc 9d 89 5a 3d
       0.07751308 0.011974907 -0.021671826 0.053353895
000040 0b ea 17 bf 50 fa 68 3e 7f 21 de 3d e0 48 cf 3d
       -0.59341496 0.22751737 0.108462326 0.10121322
000050 40 d4 12 be 9e 02 b6 3e 40 63 35 3e f1 83 f2 bb
       -0.1433878 0.35548872 0.17713642 -0.0074009825
000060 7c 3c 20 be 02 a7 42 3e 54 b4 8f 3e 75 c3 94 3d
       -0.15648073 0.19009021 0.28067267 0.07263843
000070 5e 3f 1d be 2c 02 dd 3d 6d 9c 90 3d d4 15 29 3e
       -0.15356204 0.1079143 0.07061086 0.16512233
000080 b4 a2 93 3f 41 5c 07 bd 22 b9 98 be e4 69 bf 3d
       1.1534028 -0.033046965 -0.29828745 0.09346369
000090 d0 b0 86 3e e7 39 40 3d bf a7 89 bd 6a 43 b4 3b
       0.26306772 0.04693022 -0.06721448 0.0055012004
0000a0 63 43 d5 bd f4 df 22 3e de 77 d8 3b 1f 82 05 be
       -0.104132436 0.15905744 0.006606086 -0.13037919
0000b0 4d 5d e5 bd c2 f6 08 3e af 59 f4 bd 9b d2 d1 be
       -0.11199436 0.1337538 -0.11931168 -0.40980992
0000c0 79 31 28 3c 9a 47 e4 3d 85 09 d0 3d 5f 2c e5 be
       0.010265701 0.111464694 0.10158066 -0.44760415
0000d0 e4 09 b2 3e 4e e2 b9 bd c4 db 38 3e 42 3f 1b 3e
       0.3477317 -0.09076367 0.18052584 0.1516085
0000e0 74 b1 73 bd 2f 46 27 be d1 c7 3b be af c5 66 3e
       -0.059495404 -0.16335367 -0.18337943 0.22536348
0000f0 1d c0 49 be 19 c1 87 3e 40 70 d8 3d 78 9d 74 3e
       -0.19702192 0.2651451 0.10568285 0.23888195
000100 80 d8 c7 bd 6c 78 c5 be 30 dd 08 3f 5f 96 82 3d
       -0.09758091 -0.38568437 0.53462505 0.06376337
000110 54 40 45 be cc 44 0c be 55 8d 00 3f bf 87 f0 be
       -0.1926282 -0.13698119 0.50215656 -0.46978566
000120 fe 32 64 3d 28 fd 82 be e8 90 d4 be 49 6e 98 3d
       0.055712692 -0.25583768 -0.41516805 0.0744291
000130 ba 04 37 3e 74 9f 87 3e a8 cd a4 3d 78 cd 87 3e
       0.17872897 0.2648884 0.08047038 0.26523948
000140 2f d9 10 be db f6 53 be 82 ca 55 3d 9c 32 db 3d
       -0.14145349 -0.20699637 0.05219508 0.10703012
000150 f0 2b 3b be d6 ed a1 be a2 1b 9a bd 49 3e de bd
       -0.1827848 -0.31626767 -0.07524802 -0.10851724
000160 e5 13 8f 3e c1 f6 cc 3d 1a 81 d3 bc 98 e4 bd 3d
       0.27944866 0.10008002 -0.025818396 0.092721164
000170 64 1c fd 3d 68 fa 13 3d 39 21 22 be 95 27 a9 bd
       0.12358931 0.036127478 -0.15832986 -0.08259503
000180 17 35 85 3d c8 6f ff 3c ba f9 f0 bb 49 a3 76 be
       0.06504267 0.031181231 -0.0073539885 -0.24085726
000190 09 38 56 3e af 20 85 be 07 a2 cd 3c 92 ff 89 bd
       0.20919813 -0.26001498 0.025101675 -0.06738199
0001a0 c7 69 95 be 49 4b 90 be 22 dc 9a 3e 6c a9 1d be
       -0.29182264 -0.28182438 0.30246073 -0.1539666
0001b0 05 07 0b 3e c9 63 91 3d b4 04 7d bc de 0b a7 3c
       0.13576896 0.07099111 -0.015443016 0.0203914
0001c0 cb 93 2d 3e 2b b8 72 be 11 25 55 3e 76 f7 68 3e
       0.1695091 -0.23703067 0.20814921 0.22750649
0001d0 f4 f6 c8 3e 53 6c 8e 3d 33 c5 99 be cf f7 ce bd
       0.3925091 0.06954255 -0.30033264 -0.101058595
0001e0 98 aa 03 be e2 3f 39 3e 0f bc e8 3d f5 72 98 be
       -0.12858045 0.18090776 0.11363994 -0.29775205
0001f0 7c e9 a7 3c e8 a0 aa bd d6 cb f5 bd b8 71 d2 3c
       0.020497076 -0.08331472 -0.12001769 0.025688991
000200 4c 69 cd 3d 11 93 f1 3d 3e 68 dd bd 2c 59 3b bf
       0.100298494 0.11795629 -0.10810898 -0.7318294
000210 74 2c 8c be b9 1a 7e 3d 81 b6 a1 3e 86 2e d0 3d
       -0.27377665 0.062037203 0.31584552 0.10165124
000220 50 67 b1 be 74 cb bf be 11 3e 66 3e 8c 41 c7 be
       -0.34649134 -0.3745991 0.22484614 -0.38917196
000230 67 9f 28 3e c6 57 dc 3c db f6 22 be d6 b1 43 3e
       0.16467057 0.026897322 -0.1591448 0.19110808
000240 9c 99 5a bd 56 81 ff bd 7c f0 08 3d a7 1d 90 3d
       -0.05336915 -0.12475841 0.03343247 0.07036906
000250 a6 7c c0 bd 5d 2e 2e 3e 0c ba 3d 3d 14 1e 55 bc
       -0.09398775 0.17009874 0.046320006 -0.013007659
000260 4f 6d cd 3d 9e 11 28 3d 42 ee 50 be 6f 25 18 be
       0.100306146 0.041032426 -0.20403388 -0.1485803
000270 b0 ec 19 be 70 cb ee 3d 22 e9 47 3e 1e c5 95 bc
       -0.15031695 0.116598964 0.19522527 -0.01828247
000280 b4 f5 9e be e6 2a 89 3d 87 57 8c 3c ac e8 e6 3d
       -0.31046832 0.06697635 0.01713158 0.112748474
000290 78 f9 bf be 6f 1a c4 bd 59 e9 2b be ad 8a 0e 3e
       -0.37495017 -0.09575354 -0.16788234 0.13920088
0002a0 75 da be bc f5 d0 81 be bf 7f 44 3e a5 e3 7b 3e
       -0.023297528 -0.25354734 0.19189356 0.24598558
0002b0 9e 1c d4 3d 2f f2 4b 3e 8d c3 3b bd 36 f4 35 3d
       0.10357021 0.19916604 -0.04584079 0.04442235
0002c0 bc 8f c8 3c 32 70 26 3e ec 9e 9f bd 27 e8 91 3e
       0.0244826 0.16253737 -0.07793984 0.2849743
0002d0 29 4f 72 be 16 8e 2c 3e 62 1f eb bd 52 a7 49 3e
       -0.2366301 0.16851076 -0.11480595 0.19692734
0002e0 ac ce 91 be 33 2d 1d 3e d9 4a 02 be de 16 9b be
       -0.2847799 0.15349273 -0.12723865 -0.30290884
0002f0 6f de 34 bd de f9 3b be fb c7 ec 3d 09 b9 20 bc
       -0.04415744 -0.18357036 0.11561581 -0.009809741
000300 a2 64 8d bd c1 59 6d 3e f0 09 01 3e 7b 6a 0a be
       -0.0690396 0.2317877 0.12601447 -0.13517182
000310 78 6b a7 3d 9d 90 70 3e 73 55 ec 3e 73 de 6b bd
       0.08174795 0.23492666 0.46158943 -0.05758519
000320 38 34 03 3e cd 94 64 be 2d 95 05 3f e0 b1 5d be
       0.12812889 -0.22322388 0.5218075 -0.21649885
000330 90 de 27 3e 64 24 fd bd 82 b2 fe 3d 60 2f 01 3e
       0.16393495 -0.123604566 0.124363914 0.12615728
000340 70 e4 c3 3d dc 61 25 be 7d 77 35 3d 51 7a 55 3e
       0.09565055 -0.16150612 0.044303406 0.20847441
000350 9d a0 ae be 83 a5 cd 3d b0 73 78 3f 25 11 38 be
       -0.34106913 0.100413345 0.97051525 -0.1797529
000360 69 08 bb 3d 7e fc ea bc 64 cd 07 3c 99 c1 73 3e
       0.091324635 -0.02868485 0.008288715 0.2380432
000370 be 51 87 bd 08 ca 3e 3e 6b bd 64 be 46 23 fe bd
       -0.06607388 0.18631756 -0.22337882 -0.124090716
000380 6e 75 1f 3d 0b 76 7d bd 45 13 26 bd f0 ad 01 3e
       0.03893035 -0.061880153 -0.04054572 0.12664008
000390 a7 f8 98 3d 10 96 28 3e 3d 71 84 be 76 75 8f bd
       0.07469302 0.16463494 -0.25867644 -0.07004826
0003a0 b7 62 81 3e 5d d6 4d 3e 9d 8d 24 be 17 fe 25 3e
       0.25270626 0.20101304 -0.16069646 0.16210209
0003b0 91 ad 08 3f f7 c8 68 3e 3f ae 3f 3e 6d 28 1b be
       0.5338984 0.22732912 0.18718813 -0.1515214
0003c0 4a 1a 71 be 81 94 7f bd ad d2 9b 3c a1 1c 51 bd
       -0.23545185 -0.062397484 0.019021356 -0.051052693
0003d0 78 75 76 3c a1 1e 18 be 28 e1 74 be 7f 92 b7 bd
       0.015042655 -0.14855434 -0.23914015 -0.08963489
0003e0 c7 30 38 3e df 09 98 3d 4c b7 b3 be d2 3a 82 bd
       0.17987357 0.07423758 -0.35100782 -0.06358875
0003f0 5a 47 1c 3e d2 95 40 be 3d da c8 3d 16 24 f9 bd
       0.15261593 -0.18807152 0.09807251 -0.12165086

actor_body.layers.0.bias f4 [64]
000000 e6 4e 17 3e 07 c0 fc bc 6c 7b c4 3a 0c 18 3e be
       0.14776191 -0.030853285 0.0014990396 -0.1856386
000010 d8 2b c0 3d 54 5c 2e bb 07 16 79 3c 92 86 88 be
       0.093833625 -0.0026605325 0.015203006 -0.2666517
000020 e7 ea 84 3d d6 f7 d9 3d 34 65 6f 3e 2b 08 3c 3e
       0.064901166 0.10642974 0.2337845 0.18362491
000030 77 09 88 bd 1e 99 03 be fb 35 87 3d 3f b1 92 bd
       -0.0664243 -0.12851378 0.06602093 -0.07162713
000040 32 ba a9 bc bf d6 88 be 14 dc 4d 3d 30 f9 1a 3c
       -0.020718668 -0.26726338 0.05025871 0.009458825
000050 07 85 ec bc c7 db 4a 3d 37 09 e4 3d a2 59 09 3e
       -0.028872026 0.049526002 0.1113457 0.13413098
000060 17 c4 55 3c 15 60 ef bd 8e d5 af 3e 51 29 fe bc
       0.01304724 -0.11688248 0.34342617 -0.03102556
000070 2d 33 b9 3d 03 44 77 3e 1f 1c b9 3d 80 53 f2 bd
       0.09042964 0.24147038 0.09038567 -0.118323326
000080 23 43 3d bd a7 17 3c 3e 8f 9f 82 bd e7 27 8f 3e
       -0.046206605 0.18368398 -0.0637809 0.2796013
000090 72 1a ad bd e4 9f 95 3d c2 e1 6d bd 27 79 19 bc
       -0.0845231 0.07305887 -0.058076628 -0.009367264
0000a0 69 ca 46 be 4b 90 d9 3d 1e c7 31 3e ba 64 d0 3d
       -0.19413151 0.10623225 0.17361113 0.10175462
0000b0 cc 67 71 3e 3c 9c d9 3d 71 91 1b 3d 39 7d 06 3d
       0.23574752 0.106255025 0.0379805 0.032834265
0000c0 d1 29 76 bd 29 03 4d 3e c0 30 49 be 1e 6e 77 bc
       -0.060098473 0.20020737 -0.19647503 -0.015101938
0000d0 f7 fc 85 bd d4 6a 4b 3e a7 d8 25 bc fc 80 2e 3e
       -0.0654239 0.1986497 -0.010122455 0.17041391
0000e0 93 ac a6 be 2f 54 39 3d de b6 e9 3d 1a be eb 3d
       -0.3255354 0.0452463 0.11411832 0.11510868
0000f0 e0 0e 52 bd ce 82 c8 3c ab 25 43 3d 5a 13 d6 3d
       -0.051283717 0.024476435 0.047643345 0.1045291

actor_body.layers.1.weight f4 [64, 64]
000000 f1 0a a2 bc 51 d4 36 3d b8 24 03 bd 0a 1d a0 3e
       -0.019780608 0.044636074 -0.03201744 0.31272155
000010 85 72 76 be 80 7d 81 be 18 e7 4c 3d 6b 02 ae bc
       -0.24067123 -0.2529106 0.050025076 -0.021241387
000020 dd b6 1a be bf 43 10 3d d8 cc 62 be b3 36 9a 3d
       -0.1510882 0.035220858 -0.22148454 0.07529964
000030 01 4d 8e 3d be 19 87 bd 60 a0 c0 3d d8 83 d9 3d
       0.06948281 -0.06596707 0.09405589 0.1062085
000040 f2 02 b0 bd 36 d9 5b be be 74 9e bd 3f 42 bf bd
       -0.08594312 -0.21469578 -0.077371106 -0.09338807
000050 6d f0 69 3e 68 97 57 be f6 ec 5a 3e e9 93 32 be
       0.22845621 -0.2105385 0.21379456 -0.17439236
000060 95 57 9e 3e a6 24 02 be 05 08 e6 bd b4 26 1a be
       0.30926195 -0.12709293 -0.11231998 -0.15053827
000070 c8 d6 0c bd 67 51 c0 be c6 e3 29 3e 13 9b 3c bd
       -0.03438452 -0.37562105 0.16590795 -0.046046328
000080 cc 62 65 3e c6 6d 04 3e 41 d9 bc 3e 67 c7 70 be
       0.2240097 0.129325 0.36884502 -0.23513566
000090 19 25 cc 3d 28 cb 41 3e c6 f7 d1 bd b2 f9 65 3e
       0.09968013 0.18925154 -0.10252337 0.22458532
0000a0 ab 47 09 3e ba c3 33 3d e3 9c 37 be e2 ed 49 3e
       0.13406245 0.04388783 -0.17930941 0.19719651
0000b0 d3 f8 3d be 86 9d 24 be af 8c 96 3c b4 d7 13 3d
       -0.1855195 -0.16075715 0.01837763 0.036094382
0000c0 de a3 98 bb f6 82 b4 be 13 6d 1c be 95 c0 b2 3e
       -0.0046582064 -0.35256165 -0.15275984 0.34912553
0000d0 af 8b 20 bb 7f 07 a5 be ed ce 9a 3d 44 2c 0c 3e
       -0.002449732 -0.32232282 0.07558999 0.13688761
0000e0 63 de 89 3e 3d 71 ac 3e 6f 75 64 3e 9c 47 6c bd
       0.2692748 0.33680144 0.22310422 -0.05768548
0000f0 c3 c9 74 3e 0c 28 9d bd fd 7e 1b 3d 52 4a 53 be
       0.23905091 -0.07673654 0.037962902 -0.2063382
000100 2b 6f 6a 3c ca 7d 6d ba ee e9 0f bd 05 b2 7b 3b
       0.014308731 -0.00090595766 -0.035135202 0.0038405668
000110 d1 21 07 bd 23 5b 91 be 71 d5 05 3d 9e 28 1f be
       -0.032991234 -0.28389844 0.032674257 -0.15542838
000120 5b d6 24 be d5 e8 ce 3d a0 4e 67 be c1 3f 08 3e
       -0.16097395 0.10103003 -0.22588587 0.1330557
000130 ca d6 16 3e 63 eb 97 3d 77 4d 82 bd 57 9a 85 3e
       0.14730373 0.07417943 -0.063624315 0.26094314
000140 1e d6 9c 3d 0e 7a 42 be 7f 98 82 3e 25 d9 55 3d
       0.07658027 -0.18991873 0.2550697 0.05220904
000150 b5 a5 e4 3c 08 ef 70 be 5c 2c 70 be 8d 40 9e 3d
       0.027911047 -0.23528683 -0.23454422 0.07727156
000160 d1 ea 91 3e 6f 77 04 3e f6 7b c3 bc 23 81 44 3d
       0.28499463 0.12936185 -0.02386282 0.047974717
000170 1d f0 85 be 4f fb d6 bd a4 0e 8b 3d 91 89 d2 3b
       -0.26159754 -0.10497152 0.06789902 0.0064250906
000180 c8 22 4c 3e 56 52 1c 3e 81 cf 88 3e ed f3 80 be
       0.19935143 0.15265784 0.26720813 -0.251861
000190 57 8f 7a be 3d 78 d1 3e ac 20 1f be 9b 6e 99 3e
       -0.24468742 0.40912047 -0.15539807 0.29967198
0001a0 fa 23 04 be 93 aa b3 3d e6 27 bf be fb fb 15 3e
       -0.12904349 0.08772769 -0.37335128 0.14646904
0001b0 e7 ed aa bd b4 70 aa be 78 17 84 be 42 10 d6 3d
       -0.083461575 -0.3328911 -0.25799155 0.1045232
0001c0 8c fd a2 3c 06 92 5a be b8 cb 1a be f2 07 cc 3d
       0.019896291 -0.21344766 -0.15116775 0.09962453
0001d0 c5 58 41 3e 94 41 38 3e 18 57 64 bc 03 d0 e7 bd
       0.18881519 0.17993766 -0.01393678 -0.11318972
0001e0 f0 69 0b 3c 37 ff 8d bd e7 63 93 bd ca 6c 4c be
       0.008509144 -0.06933444 -0.07196789 -0.19963375
0001f0 a7 23 36 3e a8 4f 9d bd 8e ba 01 3e e9 90 76 be
       0.17787038 -0.07681209 0.12668821 -0.24078716
000200 b4 cd df ba 49 57 75 bc d4 22 42 3e 60 f7 00 3f
       -0.0017074854 -0.014974424 0.18958598 0.50377464
000210 a9 6a 55 be db 41 11 bf 1b 4c 4d 3e 0b 24 42 3e
       -0.20841469 -0.5674111 0.20048563 0.18959062
000220 95 f8 63 be c8 0c 96 be 84 27 47 3e b9 c2 eb 3d
       -0.22262795 -0.29306626 0.19448668 0.1151175
000230 9e b1 5b be a3 83 bf bd 53 bc 29 3e 58 c0 a3 3d
       -0.21454474 -0.093512796 0.16575746 0.07995671
000240 9b 1a 98 bd 5d fe 03 3e bc 1b 01 bd b0 3e 42 3e
       -0.074269496 0.1289 -0.03152059 0.18969226
000250 07 46 24 3d cf 03 1a be b3 c0 0c 3e 68 e2 09 bd
       0.040105846 -0.15040515 0.13745384 -0.033663183
000260 0e 85 02 3d 93 d5 9c 3b 35 39 4c be bb 8f 83 3b
       0.031865172 0.004786202 -0.19943698 0.0040149367
000270 92 bc de 3c b8 55 0c bd e3 23 04 3e d6 dd 14 3e
       0.027189527 -0.034261435 0.12904315 0.14537749
000280 26 ab 0b 3b d4 a2 4b be 0f 4a 99 3e 5e cf 31 bd
       0.002131173 -0.19886333 0.29939315 -0.04341065
000290 7b 36 9f 3b f4 62 a4 3e e4 0d 3a 3d 6d 3b 61 be
       0.0048587895 0.32106745 0.045423403 -0.21995325
0002a0 4f c5 31 3e 7e 7e 1e be 3a 6a ee bd 8f 7a b2 3d
       0.17360424 -0.1547794 -0.11641355 0.087147824
0002b0 c0 ee 24 3d e1 9c 7f 3d 64 d5 81 3e d8 55 cd bd
       0.040266752 0.06240547 0.25358117 -0.10026139
0002c0 a7 28 0f be 23 54 da 3d 9d 0f 15 3d 69 ca d7 3d
       -0.13980351 0.10660579 0.036391843 0.105366535
0002d0 44 7c 6d be ee 27 36 be 1a b9 89 bd 18 56 18 3e
       -0.23191935 -0.1778867 -0.067247584 0.14876592
0002e0 51 45 52 be 1b 88 c1 3e f0 97 d0 3e 83 10 8e be
       -0.20534255 0.37799153 0.4074092 -0.27746972
0002f0 34 b6 9e 3d 63 5d f2 bb aa 1e 0e 3c 74 e1 fc 3d
       0.07749596 -0.0073963865 0.008674303 0.12347689
000300 a7 5d b2 3e e1 5b bb be 1d 13 7c be c9 c2 86 3e
       0.34837076 -0.36593536 -0.24616666 0.26320484
000310 a1 6d f7 3c 5f 7c f7 3d 74 28 f5 bd 37 22 43 3d
       0.030203642 0.12084269 -0.119706064 0.04764005
000320 f6 71 15 be f0 cd fe 3d c7 38 a9 3e 14 b1 a0 3b
       -0.14594254 0.12441623 0.3305113 0.004903922
000330 f8 bd 9a bd 0f d3 6d be fc e4 77 3d b1 5c 61 3e
       -0.07555765 -0.23225044 0.06052111 0.22008015
000340 40 70 99 bd e6 cf 04 be 1c c3 d7 3d fe 94 87 bd
       -0.07492113 -0.12969932 0.10535261 -0.06620215
000350 a2 e7 80 3e aa e1 99 3d 01 7b f5 3d c8 94 9c be
       0.25176722 0.07513745 0.11986352 -0.3058226
000360 50 70 36 bd a6 bd 5b bd 2d 07 c1 3e 62 d5 cb 3d
       -0.044540703 -0.05364766 0.37700787 0.09952809
000370 bb 6b b0 3e 82 65 ba 3d dd e8 df bd 9e b1 24 3e
       0.34457192 0.09101392 -0.10933087 0.1608338
000380 67 b8 e1 3d 8d a8 e6 bc 10 0d 64 bc 5b 8c 7a 3e
       0.110215 -0.028156543 -0.01391913 0.24467604
000390 89 5b 70 3e 7d bb e5 3c d3 bc 00 bd 76 70 8d 3d
       0.23472418 0.028043503 -0.031430077 0.06906216
0003a0 ed 56 00 3e 41 8d 6d be 28 18 d2 bd 6a 6f af bd
       0.1253316 -0.23198415 -0.10258514 -0.085661724
0003b0 71 33 af bd 35 58 59 3d c7 12 bb 3d 53 d6 e4 3d
       -0.085547335 0.053062636 0.09134441 0.111736916
0003c0 ac 14 80 3a c3 79 4d 3e fb 87 00 3d 63 08 b0 3d
       0.0009771786 0.2006598 0.03137968 0.0859535
0003d0 c7 34 b2 bd 00 c6 2a be bd dd 25 be aa 3f 97 bd
       -0.08701473 -0.16677094 -0.16197868 -0.0738519
0003e0 08 ee a7 be 4a fb 8f bd d6 17 6e 3c f4 f1 f7 bd
       -0.3279879 -0.070303515 0.01453205 -0.12106696
0003f0 3f 4b 90 bd b7 bf ca bd 47 23 6b 3c 2a 06 4a bd
       -0.07045602 -0.09899848 0.0143516725 -0.049322285

actor_body.layers.1.bias f4 [64]
000000 50 19 3c 3d f6 61 14 3c 5f 4e 79 3d 1c 43 df bd
       0.045922577 0.009056559 0.060865756 -0.10901472
000010 db 36 30 3e 97 ef 58 bd 68 2a fa bd fb 33 8b 3d
       0.17208426 -0.052962866 -0.122151196 0.06797024
000020 ff e4 68 bd 13 ca 39 3d 4c 4f a7 3d e3 73 b1 3d
       -0.056859013 0.04535873 0.081694216 0.08664682
000030 35 16 3f bd 2c 2c 4f 3c b7 37 e0 bc 7a 68 e0 3d
       -0.046652038 0.012644809 -0.027370317 0.10957427
000040 24 a4 5e bc 92 8e 03 3e 6d 1e 29 3c 2d 61 5c bb
       -0.013588939 0.12847355 0.0103221955 -0.0033627257
000050 06 62 8d be d1 e3 b5 3c a8 61 d4 3d c8 dc 17 bd
       -0.27613848 0.022203358 0.10370189 -0.037075788
000060 b8 6e 71 bc 6d a7 de 3d a6 81 5e 3d 5e 34 94 3d
       -0.01473587 0.10871778 0.05432286 0.07236551
000070 ac cd ca bd 84 5e 21 3e 1a 06 0b 3d f8 93 54 be
       -0.0990251 0.15758711 0.033941366 -0.2075957
000080 7c a3 77 3c 43 34 82 bd 79 18 98 bc 28 d4 25 3e
       0.015114661 -0.063576244 -0.018566357 0.16194212
000090 6d 64 5c 3d 56 7f d1 bd 74 ec 2b bd 16 f2 7d bc
       0.05380671 -0.102293655 -0.041973546 -0.015499612
0000a0 10 1f ce bd 30 60 b6 bd 05 04 d6 3d 12 d6 c3 3d
       -0.100645185 -0.08905065 0.104499854 0.09562315
0000b0 b9 5e 03 bd 6a 48 a3 bd ec 82 05 3e 18 74 bf 3d
       -0.032072756 -0.07972796 0.13038224 0.09348315
0000c0 e9 d9 c8 bd 32 69 fd bb c9 be 2f bd 4b 76 c5 3c
       -0.09807188 -0.0077334875 -0.042906556 0.024104258
0000d0 e3 a5 ff 3d 40 cf 1a bd c2 50 be 3d 46 84 bc bd
       0.12482812 -0.037795305 0.09292747 -0.09204917
0000e0 d1 bd 05 be 38 1a 0f bd 6f 64 77 3d e8 7a cd 3d
       -0.1306069 -0.034937114 0.060398515 0.10033208
0000f0 b2 27 d5 3d 67 dd b5 3b 25 8c 0b bd 15 34 8f 3d
       0.10407962 0.005550075 -0.0340692 0.06992356

actor_head.weight f4 [4, 64]
000000 5c 7e 0c 3d f4 68 7f 3e fe 78 d7 3d 99 bd 09 bf
       0.034300193 0.2494238 0.10521124 -0.5380493
000010 59 14 76 bc a3 d6 7f bf 52 45 1f bf 77 ab c2 3e
       -0.0150195 -0.99936885 -0.6221515 0.38021442
000020 9b 00 19 3d 2a 94 c0 3d 7f 4b d8 3e f3 94 06 bf
       0.037354093 0.0940326 0.422451 -0.5257103
000030 55 ec c7 be 40 10 23 3f 73 81 77 3e 8b 22 ca 3e
       -0.39047495 0.6369667 0.24170475 0.3947948
000040 91 17 67 3e 21 e3 4f be a8 00 ad 3e 7d 2b 98 3e
       0.22567584 -0.20301487 0.33789563 0.2972068
000050 90 12 3a be a1 96 ef 3d 55 46 e7 3c 79 aa 20 3e
       -0.18171144 0.11698652 0.02823178 0.1569003
000060 e1 02 04 bf f3 56 f0 be 70 1f 0e bf 0b e2 91 3b
       -0.5156689 -0.46941337 -0.5551672 0.0044519952
000070 07 55 65 bd b0 cf e8 3e 11 24 73 be 64 4e 99 be
       -0.05598929 0.45470953 -0.23744227 -0.2994262
000080 43 61 65 bc 82 2a 2c 3d 00 73 35 3c e3 d2 2e 3f
       -0.01400024 0.042032726 0.011074781 0.6829054
000090 eb 79 ab be e8 03 ee bd 26 eb f0 be 91 10 6d be
       -0.33491454 -0.11621839 -0.47054404 -0.23150851
0000a0 a3 3a 85 3d 87 f4 b1 be a4 2e fb 3e d2 b7 b4 3e
       0.06505325 -0.34756872 0.4905902 0.35296494
0000b0 81 47 16 bf 4e 6a 38 3f 4b f1 30 3e 75 a0 c8 3e
       -0.58702856 0.7203721 0.17279546 0.3918492
0000c0 2a e8 ee bd c2 dc 4c 3f 59 96 38 be 23 ce 78 be
       -0.116653755 0.8002435 -0.18026103 -0.24297385
0000d0 a3 62 25 3f 23 45 8e 3d 1c c5 cf be 75 bc c7 3d
       0.6460363 0.069467805 -0.4058007 0.09752742
0000e0 86 42 b8 be 6a bc 7f 3e 53 74 64 be 78 f6 bf 3e
       -0.35988253 0.24974218 -0.22309999 0.37492728
0000f0 ec cc 5a 3e 65 b3 9f 3e af 9b 00 be 71 d1 86 bd
       0.21367234 0.31191555 -0.12559389 -0.065829165
000100 bc f0 8b be e1 19 f9 3d 76 93 b9 be f1 c5 46 3e
       -0.27332103 0.12163139 -0.36245316 0.19411446
000110 e0 3c d2 3e b0 0c 02 bf 98 48 be 3e a4 05 54 3d
       0.4106207 -0.5080061 0.3716476 0.05176319
000120 4a 70 a1 3e 45 10 84 3c cf 8a e0 3e f3 81 b5 3d
       0.31530982 0.01612104 0.43855903 0.088626765
000130 5d 57 bb 3d c7 b6 23 3e 97 3e b9 be 0b 3f 70 be
       0.091475226 0.15987693 -0.36180565 -0.23461549
000140 56 87 3b bf b9 ac 21 3f 71 67 2a 3f a2 34 a7 3e
       -0.7325338 0.6315418 0.6656409 0.32657343
000150 56 5f e0 be c3 80 58 3e d8 db fd be e2 34 b3 be
       -0.43822736 0.21142869 -0.4958179 -0.35001284
000160 5c 8e c1 be 0b 29 fd bd 2e 98 9a be ca ba 58 3e
       -0.37803924 -0.12361344 -0.3019423 0.21165004
000170 f8 0b cb be 3f 4e 75 bc 77 25 81 bd 8a d5 d4 bd
       -0.3965757 -0.014972269 -0.06305974 -0.10392292
000180 31 56 70 be 3a 73 21 3f 7e 96 23 bf c0 8a 24 3f
       -0.2347038 0.63066447 -0.6390151 0.64274216
000190 96 cd fc bc e4 28 cd 39 8c f1 64 3f c5 fa 1e 3e
       -0.03085975 0.00039131113 0.8943107 0.15525348
0001a0 89 9b bc 3e 19 5a a6 3e bf 3d c7 be fe 86 37 bf
       0.36837414 0.32490614 -0.38914296 -0.71690357
0001b0 c0 0b cd be e0 07 94 3e eb bb 14 3f ce eb 82 3d
       -0.40048027 0.28912258 0.5809924 0.063926324
0001c0 c1 6b 22 bf c9 28 16 be dd bc 16 3f cd c7 7a be
       -0.6344567 -0.14663996 0.5888193 -0.2449028
0001d0 e1 46 92 3d a9 fe 95 3e f4 6f 32 3e 71 66 dd 3e
       0.07142425 0.29295853 0.17425519 0.4324222
0001e0 9b 18 34 3e f3 98 3e bf 42 ef 94 3e 42 f3 06 bc
       0.17587511 -0.7445213 0.2908879 -0.008236708
0001f0 71 2a b5 be 17 a5 02 3e db eb 90 bc 37 76 81 be
       -0.35383943 0.1275829 -0.01769059 -0.25285503
000200 9d ee e3 be ae 80 19 bf 19 9b cc be 98 03 83 be
       -0.44517985 -0.59961975 -0.3996208 -0.2558868
000210 1f ae 66 be c8 44 0f 3e 07 8d da be fc 6a 42 bf
       -0.2252736 0.13991082 -0.4268572 -0.75944495
000220 d6 54 ef 3e 17 c7 16 3f 31 17 99 be 54 27 94 be
       0.46744412 0.58897537 -0.29900506 -0.28936255
000230 d9 15 0a 3f 64 6a d9 3e 28 17 4c bf 94 75 15 3e
       0.53939587 0.42463982 -0.79722834 0.14595634
000240 eb bd 04 bf f7 9f 15 be 15 2c 0b bf 9b 01 0b bd
       -0.5185229 -0.14611803 -0.5436414 -0.033937078
000250 1c 21 8b bd a1 ba 61 bf f9 c6 78 3f b3 86 82 3c
       -0.067934245 -0.881754 0.9717861 0.01593337
000260 3f 93 22 3f 7c 99 48 3d 5f f0 a2 be f5 a5 26 3f
       0.6350593 0.0489745 -0.31824014 0.6509698
000270 32 4e 2e bd 8b f3 a7 bd 6f 4e 00 be 6e 46 2d bf
       -0.04255504 -0.08200749 -0.1252992 -0.6768559
000280 51 e7 62 3e 0d 6a 04 3d b5 ee 29 3f 67 a2 03 bf
       0.22158553 0.0323277 0.66379863 -0.5141968
000290 d4 41 81 bf f9 67 de be ce 02 8b be 7a 47 bd 3d
       -1.0098214 -0.434387 -0.27150577 0.09242149
0002a0 75 bc c5 be 07 1a 17 3f b1 e8 1c bf 55 69 0c be
       -0.38620344 0.5902409 -0.6129256 -0.13712056
0002b0 c7 2f 45 be 8d 4e c5 3e d7 21 59 3f bc c9 c0 be
       -0.19256507 0.38536492 0.8481726 -0.3765391
0002c0 c1 93 96 3e 1b 30 33 3f c3 d4 83 3d e3 78 bf be
       0.29409602 0.6999528 0.064370655 -0.37396917
0002d0 14 e1 6e 3e 63 a3 f8 3d 50 d2 8c be 00 c9 55 bf
       0.23328048 0.121405385 -0.27504206 -0.83509827
0002e0 a0 e9 c4 3e 8b d1 b6 be 4b a0 3e 3e 30 cf 87 be
       0.38459492 -0.35706744 0.18615834 -0.2652526
0002f0 ea 09 eb 3c af a6 6e 3c 22 42 17 3d 77 ec 1c bf
       0.02869125 0.014566108 0.036928304 -0.61298317
000300 be 62 56 be 66 01 7d be 38 7f e8 3d 1d f7 0e 3f
       -0.20936105 -0.24707565 0.1135239 0.55845815
000310 2c b3 aa 3e a5 73 86 be 7c e0 ef 3e a7 51 50 bd
       0.33339822 -0.26260105 0.46850955 -0.05085912
000320 7b 48 e4 3e 3d 8b 52 be e3 76 ce be 65 6c 96 3e
       0.44586548 -0.20560928 -0.40325078 0.29379573
000330 68 62 cb 3e 39 7c f3 be 51 c1 a7 3e 7b 5c 85 be
       0.39723516 -0.47555712 0.32764676 -0.2604712
000340 ea 89 48 be b3 37 c7 3e 84 51 78 3e fd 02 27 3e
       -0.1958386 0.38909683 0.24249846 0.16309734
000350 7a 57 d7 be c2 5e 90 be db 42 54 3e 39 44 6d 3e
       -0.42058927 -0.28197294 0.20728628 0.23170556
000360 a9 1e aa bd a0 64 e3 3e 39 4e 70 3e d5 98 57 be
       -0.08306629 0.44412708 0.2346734 -0.21054395
000370 19 d0 7c be e2 30 07 3e 67 4a 84 3f fe 90 98 3d
       -0.24688758 0.13202241 1.0335206 0.0744953
000380 9d d0 2b 3f 61 b2 2c be 5b 5c e7 3e 84 de 97 3e
       0.67115194 -0.16864921 0.4518765 0.29661953
000390 25 60 28 be 36 db 3a 3e bc a4 7b be 2b 40 2d bf
       -0.16442926 0.18247685 -0.2457456 -0.6767604
0003a0 3c 7d c6 3e 2a 65 90 bf 0b 20 e0 3e cb 4d cf 3e
       0.3876742 -1.1280873 0.43774447 0.4048904
0003b0 5d 08 bf bd 1f e4 7e 3e 42 35 17 be 44 fb e9 bd
       -0.09327767 0.24891709 -0.1476641 -0.11424878
0003c0 12 9e 48 bf 12 a1 c2 3e 0e bb 9d bc 56 f3 e1 3e
       -0.78366196 0.38013512 -0.019254234 0.44130963
0003d0 c5 ba a4 3e d5 4d 47 3f c0 de 9e 3e 2a f6 5d bf
       0.32173744 0.7785314 0.3102932 -0.8670374
0003e0 e8 9e fb 3e fa 74 0d bf 40 70 56 3e 64 23 3d be
       0.49144673 -0.5525662 0.20941257 -0.18470532
0003f0 47 b9 a7 3f a2 c1 73 3e 72 72 b4 be a5 59 08 3f
       1.3103417 0.23804334 -0.35243565 0.53261787

actor_head.bias f4 [4]
000000 64 15 f6 3d 32 59 8b bd 9d 68 c6 3d ad 8d b2 bc
       0.12015799 -0.06804122 0.09687922 -0.021796072

critic_body.layers.0.weight f4 [64, 33]
000000 64 dc e0 bd 4e 82 d7 3e fc ba 73 3e 12 4e 91 bd
       -0.10979536 0.42091602 0.23801798 -0.07094969
000010 42 61 56 bc 46 b9 9a be 43 3e 23 bd 77 eb 13 bf
       -0.0130847115 -0.30219477 -0.0398543 -0.57781166
000020 a2 4a 17 3f f4 e5 85 3e df f1 10 3d 5e 68 d2 3d
       0.59098256 0.26152003 0.035386916 0.10273813
000030 20 e1 c9 3e 2a ff b2 3e 7a e9 c8 3e 28 0d 66 3e
       0.3942957 0.349603 0.39240628 0.22465956
000040 98 e0 96 3e 2c 21 3b bf 7b 13 6a be 00 70 05 be
       0.29468226 -0.7309749 -0.22858994 -0.13031006
000050 bb 18 13 3f 39 15 0e 3f e4 f0 0d bf 44 bd 81 3e
       0.5745961 0.55501133 -0.55445695 0.2533971
000060 45 00 29 3e 8a a4 dd be 25 14 1e 3d bc 99 39 bd
       0.16504009 -0.43289596 0.03859343 -0.04531263
000070 73 99 87 be 98 b7 1f bd 88 e2 62 3d 9a 04 d2 bd
       -0.2648426 -0.038993448 0.05539182 -0.10254784
000080 04 c3 ca 3e 4a 41 02 be 83 97 e4 bd b9 98 f5 3d
       0.3960191 -0.12720218 -0.11161711 0.1199202
000090 f4 3a bc 3c 3f f6 24 be 68 09 97 3e b8 9d 71 3e
       0.02297733 -0.1610956 0.29499364 0.23595321
0000a0 81 b4 82 be d8 52 57 be b4 6d 7e be b2 52 bb be
       -0.2552834 -0.21027696 -0.24846536 -0.3658653
0000b0 e7 9a 7c bc 96 5a 6f 3e 90 4d ab 3d 56 a1 88 bc
       -0.015417791 0.233744 0.08364403 -0.016678493
0000c0 9c d4 33 3e b2 b2 0d bf 8f 97 4b 3f d8 02 16 bf
       0.17561573 -0.5535079 0.79528135 -0.5859809
0000d0 a9 2f 84 bf 2b b3 ee bd 46 c6 c1 3e 6d a3 0b 3e
       -1.0327045 -0.11655267 0.37846583 0.1363656
0000e0 29 5d 41 bf 8b 14 1f bd b5 f0 e9 be 0a f6 b5 bd
       -0.75532776 -0.03883795 -0.45691457 -0.08884819
0000f0 ed 95 77 3d 9a 81 82 be 00 9e a3 3a 51 67 fb bc
       0.060445715 -0.25489503 0.0012483001 -0.030688914
000100 78 f7 c1 3c cb 82 f3 3e 81 41 a2 be 47 db e2 3e
       0.023677573 0.47560725 -0.316906 0.4430792
000110 e5 68 ff 3e bc 91 1d bf c1 54 35 be 87 53 37 bf
       0.49884716 -0.615505 -0.17708112 -0.7161183
000120 1e 0a 9e 3b 94 d7 9d 3c 92 63 21 bf fa 4b b5 3e
       0.0048229834 0.019267835 -0.6304256 0.35409528
000130 21 d1 d1 bd 0c 8b 1c 3d 0d 92 94 3c ba 1e 2c 3f
       -0.10244966 0.038218543 0.018136049 0.67234385
000140 b1 30 fe be 02 ba 11 bf 76 cd 8b bd b6 df e1 3d
       -0.49646524 -0.5692445 -0.06826298 0.110289976
000150 f0 7b 8d bd 58 26 d6 3c 31 f7 0e 3d 37 0b 17 be
       -0.06908405 0.02614133 0.03490371 -0.14750372
000160 9d c6 09 3e ae e7 ec 3b c7 dd 40 be be 93 3a be
       0.13454671 0.007229767 -0.18834601 -0.18220422
000170 a3 94 a0 be 7c 04 cf 3e 3a 3d 8f 3e e1 67 1e be
       -0.313634 0.4043311 0.279764 -0.15469314
000180 d2 92 a6 be 8c 6a 90 bd ae 12 d0 3f 55 6d ea 3e
       -0.3253389 -0.07051572 1.62557 0.4578654
000190 52 bb 89 3e 93 70 0b 3e 38 49 b3 be 04 62 ca 3e
       0.26900727 0.13617162 -0.350168 0.39527905
0001a0 fd 08 93 be 6d 34 a1 3e f6 76 28 3d 07 1f 8e 3e
       -0.28717795 0.3148531 0.041129075 0.27758047
0001b0 9b f5 2e 3d 9b b3 b2 bd 8d ed a4 3c 9d 15 9f bd
       0.042714696 -0.08725663 0.020132804 -0.07767794
0001c0 1c dd 03 bf cf ef c7 3e 25 74 ac 3d 24 62 61 3f
       -0.5150926 0.39050147 0.0842059 0.88040376
0001d0 ff c5 ca bd ff c6 8c 3f e6 a4 93 3f 0e ae 1c bf
       -0.09901046 1.0998229 1.1534698 -0.61203086
0001e0 56 9b 80 be 1f d4 cd 3e aa 26 95 3e 4a 6d a4 be
       -0.25118512 0.40200898 0.2913106 -0.3211463
0001f0 a4 ec 12 be 90 27 ce bc b6 5a 8b 3e b4 f5 0e 3e
       -0.14348084 -0.02516535 0.27217644 0.13960916
000200 af 91 97 bd 54 f5 bd be 98 e0 be bc c1 b1 2b bf
       -0.07400834 -0.37101233 -0.023300454 -0.67068106
000210 04 a5 b2 bc 40 31 9f 3b 8a 35 e7 bd 7c b6 d7 3d
       -0.021807201 0.004858166 -0.11289509 0.10532853
000220 6a e4 23 3d f5 6b 14 be 71 7e f2 be ec b9 24 3e
       0.040012754 -0.14494307 -0.47362092 0.16086549
000230 df 8e f5 bc d3 6e e3 bd f5 7f 26 3b a4 ab 33 be
       -0.029975353 -0.111051224 0.0025405858 -0.17545944
000240 7a 78 92 bd 41 1f 99 bc db 95 8c 3e cd bc 4f 3e
       -0.07151885 -0.01869166 0.2745808 0.20286866
000250 1e c3 4d 3f 48 ba 88 be 81 df 14 be 9d 97 01 3f
       0.8037585 -0.2670462 -0.14538385 0.5062197
000260 8e 7b 9c 3e 31 6b 0e 3e ba e9 00 bc 52 5e ec be
       0.30563015 0.13908078 -0.007868225 -0.4616571
000270 8d db 30 3e b6 3d c7 3e 51 7b d5 3d 63 36 4b 3e
       0.17271252 0.3891427 0.10423911 0.19844966
000280 4d 45 ed 3e 84 9f 14 3d 98 f4 3a bd c0 9c 06 be
       0.46341935 0.03628494 -0.04564342 -0.13145733
000290 b4 c8 cb 3f d6 d1 35 3e 91 8c 6a 3d 6f 5a 47 be
       1.5920625 0.17755827 0.05726296 -0.19468091
0002a0 3d d8 40 3d 97 26 95 bc 94 88 1e 3e eb 94 44 3e
       0.04708122 -0.018206878 0.15481788 0.19197433
0002b0 e1 8d c9 bd 02 ab 2b 3f 51 b9 ad 3b 5f 40 df 3d
       -0.098415144 0.6705781 0.0053016325 0.1090095
0002c0 e2 8e cb 3e 39 93 51 3e 1b 2e 4d be 2f a7 55 be
       0.39757448 0.20466317 -0.20037119 -0.20864557
0002d0 a1 ff 31 3f e3 7f ad be fa af c9 bf 96 a5 26 3d
       0.69530684 -0.33886632 -1.5756829 0.04068526
0002e0 70 dd 5a bd ee b9 fe bd 83 bc 58 3e bc 21 7e be
       -0.053433836 -0.12437807 0.21165662 -0.24817556
0002f0 19 b9 ac 3e 2d 51 5a be cc 38 ad 3c aa 86 8f 3e
       0.33734968 -0.21320029 0.021145247 0.28032428
000300 bc 43 ff 3c 85 3a 8d be d6 f9 8c bd e4 56 e0 bd
       0.031160228 -0.2758371 -0.0688359 -0.10954073
000310 44 05 1d bd 53 c0 fc be d3 da 83 be bf 70 7f bc
       -0.0383351 -0.49365482 -0.25752887 -0.015590846
000320 30 11 f4 3e ab f4 ed bc 1f 8d 7b 3b ea 04 03 3f
       0.47669363 -0.02904733 0.0038383675 0.51179373
000330 7d 54 bd 3d 05 58 72 be fc 92 ff 3d 25 0c f4 bd
       0.092446305 -0.2366639 0.12479207 -0.11916379
000340 07 f4 43 be 93 1c 20 be 12 0e 4d 3e 9a 33 0b 3d
       -0.19136058 -0.156359 0.20024899 0.033984758
000350 2b 71 a0 bd 4c 65 35 be 9d 0c 5f 3e 45 0b a7 bd
       -0.07834085 -0.17714423 0.21782155 -0.08156446
000360 bb e1 5a 3e ed cf 60 bf 55 63 c2 3e de b3 d4 be
       0.21375172 -0.8781727 0.3796641 -0.41543478
000370 45 3b 71 bd b3 fe aa 3e 31 5a 86 3d e8 d3 a7 3d
       -0.058894414 0.33397445 0.065601714 0.08194715
000380 4f 3a 28 3f cb 42 63 3d ca cb 07 3e 6a c1 ec bd
       0.6571397 0.05548362 0.13261333 -0.11560328
000390 43 19 a7 bb cc ec fc bd 6a 0b bf 3c d5 df 8c be
       -0.005099447 -0.12349853 0.023320872 -0.2751452
0003a0 10 86 67 3e 54 83 c9 be 05 2f 35 3e 08 b0 ae bd
       0.22609735 -0.39358008 0.17693718 -0.08529669
0003b0 e3 d7 08 be 85 0b 9f be fa c3 35 3e 5e f5 a5 be
       -0.13363604 -0.31063476 0.1775054 -0.32413763
0003c0 d2 d1 6d 3e 74 df 47 bd d9 94 65 3e e1 06 92 be
       0.23224571 -0.048797086 0.22420062 -0.28520873
0003d0 85 78 f2 bd 33 10 52 3e 34 95 e0 3d d0 5f 16 bf
       -0.118393935 0.20513992 0.10965958 -0.5873995
0003e0 cc d3 ab bf 0e 5c 6d 3e ce a9 7b 3f e0 d0 38 3e
       -1.342401 0.23179647 0.98305976 0.1804843
0003f0 0d f9 8d 3e 7d b2 75 be 37 76 e2 3e 54 01 bb bd
       0.27729073 -0.23993869 0.44230816 -0.09131113

critic_body.layers.0.bias f4 [64]
000000 d2 94 1b 3e a5 ac a7 bd 40 be 4f be 13 ea 09 bf
       0.15193489 -0.08187226 -0.20287418 -0.53872794
000010 b8 0a 2b be 73 a2 b3 bc cb fa cd bd 91 b6 7a 3e
       -0.16703308 -0.021928048 -0.100576006 0.24483706
000020 e8 a6 ca 3d f6 66 c2 3e 29 d1 57 3e 0b 2c de bb
       0.09895116 0.37969178 0.21075882 -0.0067801527
000030 17 65 c8 3e 09 a4 1a bd 52 43 88 3d 30 6d a7 3e
       0.39139625 -0.037754092 0.06653465 0.3270049
000040 77 39 4c 3e 62 f2 6a 3e 95 9e 82 3e 57 cc 03 bf
       0.19943796 0.22944024 0.25511613 -0.5148367
000050 3e bc d3 be 29 54 94 3e da ef 20 3d 06 76 de be
       -0.41354555 0.2897046 0.03929124 -0.4344942
000060 c9 4f 76 3d 67 bc 6e 3e e4 c8 37 3e b7 96 84 bd
       0.060134683 0.23314057 0.17947727 -0.06474059
000070 a9 86 19 bf 13 8a d8 be a4 72 48 3e 39 ed 17 3f
       -0.599711 -0.42292842 0.19574982 0.5934635
000080 45 60 6b bd 39 c4 09 3f e8 e4 a9 3d 1a bd 6c 3e
       -0.057464857 0.53815037 0.082956135 0.23119012
000090 0a 1e d0 3e ec e6 d9 3e de 37 05 3f 8e 5b 4e be
       0.40647918 0.42558992 0.5203837 -0.20152113
0000a0 1a 58 94 3d 50 33 09 bc 15 fd a4 3e 10 af 50 bd
       0.072433665 -0.00837405 0.32224336 -0.050948203
0000b0 cb 71 c9 be ed 25 d7 bd ae 6b 22 3f e6 09 23 bf
       -0.3934463 -0.10505281 0.63445556 -0.6368698
0000c0 4b bd fc 3d 47 9d c4 3e d5 8a 08 bf 08 3c 02 3d
       0.12340792 0.38401243 -0.5333684 0.03179553
0000d0 02 92 00 bf 68 84 2a 3d fb d7 b7 be 30 a4 c2 3d
       -0.5022279 0.04163018 -0.35906968 0.095039725
0000e0 1e 7c bd 3b 83 06 46 be 4f 03 94 3d 79 a9 59 3e
       0.005782618 -0.19338422 0.072271936 0.21256055
0000f0 4c 6a 52 bd f6 ab d7 be 47 a1 9d be 56 10 e1 be
       -0.051370904 -0.42123383 -0.30787107 -0.43957776

critic_body.layers.1.weight f4 [64, 64]
000000 89 9e 3e be 2f c2 72 3e 6b e8 00 3e 46 6b 40 3d
       -0.18615164 0.23706888 0.1258866 0.046977304
000010 34 82 78 be 06 e7 8f be 6d 8c 24 be 01 73 dd bd
       -0.24268419 -0.28105944 -0.16069193 -0.10812951
000020 03 fa a4 3e 36 65 de bd 1c f6 57 be c4 2c 9b 3e
       0.32221994 -0.10859148 -0.21089977 0.3030759
000030 cf e7 d0 3d 4a 92 84 be c2 24 2d 3d 42 bc 96 be
       0.10200464 -0.2589286 0.042271383 -0.29440504
000040 eb 48 39 3e 14 1d 26 3e 21 f2 56 be ee c3 f9 3d
       0.18094222 0.1622203 -0.20990802 0.12195574
000050 97 5b f2 3d 42 20 fb 3c 28 b4 27 bb f4 5e e7 3d
       0.118338756 0.03065503 -0.002558956 0.11297408
000060 62 5a e5 bd 3d 18 a9 bc 7e 6c 1c 3e 7d ee 80 bc
       -0.1119888 -0.02064144 0.15275761 -0.01573872
000070 2f af 1d be f1 4b 1c 3e a9 10 e0 bd 18 61 53 bd
       -0.15398858 0.15263344 -0.10940678 -0.051606268
000080 2e 66 fd bc 38 ff 89 3d 2c ea b8 bb e1 f8 bf 3d
       -0.030932512 0.06738132 -0.00564315 0.09373642
000090 f7 13 4f bd 32 02 d4 bd 99 2e 2d 3e 58 7a 43 be
       -0.05055615 -0.10351981 0.16912307 -0.19089639
0000a0 a7 22 f6 bd 44 62 08 3e e7 19 d4 b9 ff 13 aa be
       -0.12018328 0.13318735 -0.0004045509 -0.3321838
0000b0 0b 98 8e 3e 7c 5e c5 bd d6 5d 9c 3e 8d 71 30 3e
       0.27850375 -0.09637162 0.3054034 0.17230816
0000c0 5f b0 a2 3d 15 9f 19 3e c9 0d 9a 3c 54 9a ed 3c
       0.07943796 0.15002091 0.018805401 0.029004253
0000d0 89 be 5a 3e 61 ce 03 3f 2e f2 31 3e 43 7e 76 3e
       0.21361746 0.51486784 0.1737754 0.24071603
0000e0 47 72 1f bf c4 d1 90 be 74 8a a0 3d 82 ec c6 3e
       -0.6228375 -0.28285038 0.07838908 0.38852316
0000f0 9f 7b 91 3d b4 32 ff bd 90 35 8f be 06 e9 a9 be
       0.07103657 -0.12460843 -0.27970552 -0.33185595
000100 ab ba 7d be 14 8d 1e 3d 1a bf df be f7 34 45 be
       -0.2477824 0.03870876 -0.43700486 -0.19258486
000110 c5 21 d0 3d 47 ea 2f bc b5 af ba 3d 99 74 7a 3c
       0.10162691 -0.010737008 0.09115545 0.015286588
000120 06 44 be bd ed d6 1a 3c 3a b6 28 3e b5 44 74 3d
       -0.09290318 0.009450656 0.16475764 0.059635837
000130 a1 d5 f4 3b a8 f1 b6 bd 55 3f 85 3e 54 be e2 bd
       0.0074717556 -0.08932811 0.2602488 -0.110714585
000140 32 61 21 3e 54 c4 a2 3e 12 c0 8f 3e 1a ed a3 bd
       0.15759733 0.3179041 0.28076226 -0.08004208
000150 d3 4c 84 be f7 76 2a bd 24 3d d4 bd 0c 82 7c bd
       -0.25839862 -0.04161736 -0.10363224 -0.06164746
000160 93 9d b2 3e 82 9f b2 bc f9 9b a6 3e 69 05 36 be
       0.34885845 -0.021804575 0.32540873 -0.17775501
000170 a4 5b f0 3d 4d 35 1a bd 64 78 15 3e c0 39 33 3e
       0.11736229 -0.037648488 0.14596707 0.17502499
000180 e3 63 35 be f0 6b 04 be 6f 77 90 bd 02 2c 2d bd
       -0.17713885 -0.129318 -0.0705403 -0.042278297
000190 8e f0 49 be 10 07 4e be 22 9f 32 3e ce 62 05 3e
       -0.1972067 -0.20119882 0.17443517 0.13025972
0001a0 eb ae b5 3c 7b 70 50 3d 01 0f b6 be 00 66 90 3d
       0.022178134 0.05088852 -0.35558322 0.07050705
0001b0 a8 a0 28 3d 51 38 78 3d ec 34 85 3d 9e 1c b8 3e
       0.04116884 0.060600583 0.06504235 0.35959333
0001c0 c1 89 c1 bd 6c 1e 64 be eb 82 68 3e ff 03 16 3e
       -0.094501026 -0.2227723 0.22706191 0.14649962
0001d0 b1 df 9e 3d ef 8e bb be 89 ab b0 3e c8 99 98 3e
       0.077575095 -0.36632487 0.3450587 0.29804826
0001e0 03 13 9b bd 78 a1 c9 3d fc 9a 78 3e 28 58 23 3e
       -0.075719856 0.09845251 0.24277872 0.15951598
0001f0 c2 f3 a0 3d bd 55 73 bc e1 aa 25 3d 43 71 05 3c
       0.07858993 -0.014851985 0.040446166 0.0081446795
000200 e9 b1 1a 39 ad db 35 3d cf f6 0c bf 93 c5 2f bd
       0.00014752861 0.044398952 -0.550641 -0.04291303
000210 a9 6f 3d be a7 b7 f3 bb 8f bb f7 bd 40 d1 1c be
       -0.18499626 -0.0074376645 -0.12096321 -0.15314198
000220 1b 4c 19 be f7 3a d2 bc ac 39 9f 3c 17 93 31 3d
       -0.14970438 -0.025662882 0.01943668 0.043353166
000230 41 58 f7 bd 97 6e 2f be 10 6c ab bb c4 04 4b be
       -0.1207738 -0.1713203 -0.005231388 -0.19826037
000240 df de a5 be 37 b9 d4 3d 23 a3 73 3d d9 ab 93 bd
       -0.323966 0.103868894 0.05948175 -0.07210512
000250 de 0c b8 3d a1 7c c6 3d 42 e4 f9 bd a0 9a 76 be
       0.08986829 0.0969174 -0.1220174 -0.24082422
000260 a1 f7 c1 bd 4c 20 bb 3c 74 a0 f7 3e 5c 48 cc be
       -0.094710596 0.022842549 0.48364604 -0.39898956
000270 86 4a b7 bd ed c1 3b bd 8c 69 d3 3c ff 06 5c 3b
       -0.08949761 -0.04583924 0.025807165 0.0033573506
000280 37 b1 0b 3e ef 85 f1 bd 1e 3f e7 bc e6 de 04 3e
       0.13641821 -0.11793124 -0.028228339 0.12975654
000290 15 78 c0 bc 2e 68 a8 bd b6 e7 91 3d 22 7f 90 3d
       -0.02349476 -0.08222996 0.071242735 0.07055499
0002a0 5c cb c4 bd 58 2a a5 3e 48 08 71 3d d9 ad 26 bd
       -0.096091 0.32258868 0.05884579 -0.040693138
0002b0 ab e5 5c bd 23 10 84 bc d7 a3 25 be 25 83 02 3e
       -0.053929966 -0.016120976 -0.16175781 0.1274534
0002c0 5a b1 ef bd 28 b0 9c bd 88 5f c1 bd ca 76 a9 bd
       -0.11703749 -0.07650787 -0.09442049 -0.0827461
0002d0 3d 6d c0 3d bc 5a 46 bb de d5 22 3e fc 37 01 3d
       0.093958355 -0.0030266484 0.15901896 0.03154753
0002e0 3a 21 9b bc 4c 2c 86 bc db b0 9d be 7c 3f 63 3d
       -0.018936742 -0.016378544 -0.30798993 0.055480465
0002f0 38 49 c6 3c 33 a6 bc bd 82 61 2c 3d e3 57 a1 bd
       0.024204835 -0.092113875 0.04208518 -0.07878091
000300 e7 3d ef bd 3d 33 f2 3d 13 de 0d be 02 fb 69 be
       -0.11681729 0.11826179 -0.13854246 -0.22849658
000310 dc 7f 03 bf 0c 4c 86 3e 28 70 58 3e df 11 ca be
       -0.5136697 0.26229894 0.21136534 -0.3946676
000320 13 05 98 be ab cd 5f be 46 51 76 bc 63 9c 45 bd
       -0.2969137 -0.218558 -0.015034026 -0.048244845
000330 0f ca 04 3d c1 53 2f be 0e 44 13 3e 77 de 81 3e
       0.03241926 -0.17121793 0.1438143 0.2536504
000340 3f 1d b1 3d ab 6d 5a be a0 f0 ba 3d 25 f3 5c bc
       0.086481564 -0.21330898 0.09127927 -0.013485705
000350 1d 0e 2a 3d 68 e8 40 bd 12 f9 cd bd ce 69 0e 3d
       0.041517366 -0.04709664 -0.10057272 0.034768872
000360 36 ce 96 be da b8 df bd fe 83 4a 3e c0 9b 91 3d
       -0.294542 -0.109239295 0.19776914 0.07109785
000370 b2 42 ac 3c 7f e4 b3 bc fe 1b 91 3e 66 26 d9 bd
       0.021027897 -0.021959541 0.2834167 -0.10603027
000380 64 7c c5 be 26 3e fe bd ce 52 7d bd 86 80 34 bc
       -0.38571465 -0.124141976 -0.061846547 -0.0110169705
000390 5a 0c 7c 3e ed 9c 9a 3d 4b 48 5b 3c 1e dc a5 3e
       0.24614087 0.075494625 0.013383935 0.323945
0003a0 ff dd bd bd 2f 08 be 3d 5e 1e eb 3d ed 4e 91 3d
       -0.09270858 0.09278905 0.114804015 0.07095132
0003b0 74 cc e4 be 61 4e 8a 3d 26 f9 90 bd 9e 02 e3 3d
       -0.44687235 0.06753231 -0.07078771 0.110844836
0003c0 44 1b 68 3e 66 fa db 3d e4 c3 41 3e 9a a3 14 be
       0.22666651 0.10741119 0.18922383 -0.14515534
0003d0 60 d7 ac 3d 12 6f 11 3d 61 1b 81 be 47 04 66 be
       0.08439517 0.035506316 -0.252162 -0.22462569
0003e0 61 7b e1 3c 1f ba ac 3d 04 ea 59 be b2 58 06 3f
       0.027524652 0.08433937 -0.21280676 0.5247909
0003f0 ac 16 16 be db 57 a3 bd 2f 59 91 be e8 ee 1f 3e
       -0.14657086 -0.079757415 -0.28388354 0.15618479

critic_body.layers.1.bias f4 [64]
000000 1d 4b 59 be 5b 5a 70 3e 48 13 96 bd 90 fa 6c 3c
       -0.2122006 0.23471968 -0.07327896 0.014464036
000010 bb b9 8a bb 5f 2f 39 3d bd c9 52 3e a1 a1 6b 3f
       -0.0042335666 0.045211192 0.2058477 0.920435
000020 57 e2 a0 3d 08 cc 23 3f a3 48 3d 3d aa 1c c9 bb
       0.07855671 0.639832 0.04621185 -0.00613745
000030 ce ee 8b bd 9e 30 9c 3d 4f f0 a0 bd 41 91 4f 3d
       -0.06832658 0.076264605 -0.07858335 0.050675634
000040 09 5a 40 3e 37 2b 39 be 10 66 a4 3d 5f 1a 23 bd
       0.18784346 -0.18082891 0.080272794 -0.03982007
000050 21 3a 2a bc ca 3d a3 3d 49 67 e2 3e 92 41 91 3d
       -0.010389836 0.0797077 0.44219425 0.07092585
000060 7f 89 63 be 67 44 55 bd 9e 33 da 3d 96 0f c6 3c
       -0.2222042 -0.052067187 0.106543764 0.024177354
000070 89 45 5e bd bd 17 b7 3e 01 07 52 3d bc 8a 75 bc
       -0.054265533 0.35760298 0.05127621 -0.01498669
000080 d6 c0 be bd 09 12 9d 3e 99 53 9d 3b 53 1f d6 3d
       -0.09314124 0.30677822 0.0048012254 0.10455193
000090 88 28 24 bd e8 70 8a 3d 36 84 3b bd 3c 95 db 3e
       -0.040077716 0.067598164 -0.045780383 0.42887294
0000a0 45 5b ec bd 5a 6f 39 3b 8c 16 08 be 6f f8 d9 3d
       -0.11540846 0.002829513 -0.13289851 0.10643088
0000b0 52 6f 0f 3e 21 37 ed bc a4 e3 c1 bc 70 50 41 be
       0.14007309 -0.028956952 -0.023668118 -0.1887834
0000c0 8b 4c c7 bd 16 cd de bd bc 20 e0 3d 90 1f e8 be
       -0.09731396 -0.10878961 0.109437436 -0.4533658
0000d0 49 a0 7c 3b 0f 66 2d be 27 18 9e 3d d1 01 c6 3d
       0.0038547686 -0.16933464 0.077194504 0.09668315
0000e0 20 d3 c6 3d 0d f3 8d 3c 5e cb 53 3c 9a e6 31 be
       0.09708238 0.01732781 0.0129269045 -0.17373124
0000f0 c9 55 38 3b 29 e8 4c 3d 52 0b 62 bd 8c 77 f0 3e
       0.0028127304 0.050026093 -0.055186577 0.46966207

critic_head.weight f4 [1, 64]
000000 d3 5d 99 ba 9d 3b 83 3c 28 59 5d bb 76 e7 74 bc
       -0.0011700935 0.016019637 -0.0033775065 -0.014947763
000010 e0 c2 4a bb ab f2 b1 bd ee 52 b5 3c ae 19 71 3e
       -0.0030938908 -0.08688863 0.02213427 0.23544952
000020 59 29 80 bb c7 b1 fa 3d ab 42 18 bb e5 4d 51 bb
       -0.003911179 0.122409396 -0.0023233097 -0.0031937298
000030 72 a7 f4 3b 73 af 1c 3e ff 4d a4 3b 8d a6 84 bb
       0.00746625 0.15301304 0.0050141807 -0.0040481747
000040 82 ee 43 3d 21 3e b5 bc 5d be ab 3c c9 f0 b0 38
       0.04783488 -0.022124352 0.020964796 8.437184e-05
000050 ca 1d 08 3b be ea 72 3c 11 04 34 3e 12 02 fe 3a
       0.0020769709 0.014826475 0.17579676 0.0019379279
000060 5a d0 25 3c 5a 28 93 3b 73 ff 97 bb 24 ff fb 3c
       0.010120476 0.0044908943 -0.004638606 0.030761309
000070 05 b0 74 3c 15 8e 9a bc e1 ca 33 bc 32 2b 6e 3c
       0.014934544 -0.018866578 -0.010973663 0.014536666
000080 c7 c9 eb bc ef a4 b2 3d 7d eb b8 bb cb 20 fc 3a
       -0.028782738 0.08722865 -0.0056433068 0.0019235847
000090 ea 95 ec 3b bf eb 2d 3b 76 00 cb 3b ac fa 1a 3e
       0.0072200196 0.002653822 0.0061951233 0.15134686
0000a0 a7 d2 f4 bb 43 33 52 3c 22 fe a1 bc df d5 64 3c
       -0.007471401 0.012829605 -0.0197745 0.0139670065
0000b0 55 0d 7a bc ef 25 fb ba de 8f 81 39 1f 38 05 3a
       -0.015261968 -0.0019161085 0.00024711987 0.000508191
0000c0 51 51 e3 bb 05 1e 8a 39 fd 24 23 3c 07 84 2b bd
       -0.006937184 0.00026343777 0.009957549 -0.041873958
0000d0 87 dc 1a bc 62 8c f5 bb e2 4b 80 3b ef 99 79 3b
       -0.009451992 -0.0074935416 0.003915296 0.0038086136
0000e0 1a d7 34 3d be 9f f8 39 ce c6 88 ba aa fe 75 3b
       0.04415045 0.00047421263 -0.0010435225 0.0037535825
0000f0 fd 29 01 bb 51 35 8f 3b 3d 61 33 3c c7 81 ce 3d
       -0.0019708865 0.0043703695 0.010948476 0.10083347
